model-adamax.pkl (torch, 722127 bytes, 8 tensors)

conv1.weight f4 [32, 1, 3, 3]
0	0xbd9fa758	-0.0779559
1	0x3de12d96	0.10995023
2	0xbeb72bf9	-0.35775736
3	0xbe878cc2	-0.26474577
4	0xbe273b9a	-0.1633133
5	0x3bc67332	0.006056213
6	0xbdad59d5	-0.084644
7	0x3e2e3a68	0.17014468
8	0xbdeba729	-0.11506493
9	0x3d7a6e57	0.061140385
10	0x3c5816f5	0.013189067
11	0xbe1ab48d	-0.15107937
12	0xbf83ce16	-1.0297267
13	0xbef868ce	-0.4851746
14	0xbf12422b	-0.57132214
15	0xbe84c731	-0.2593322
16	0x3f05781b	0.5213639
17	0x3e8041a1	0.2505007
18	0xbeb831f4	-0.3597561
19	0xbd861d41	-0.065485485
20	0x3e6dae0a	0.23210922
21	0xbe1a3cc6	-0.15062246
22	0x3e25d11d	0.16193052
23	0x3dff3f18	0.12463206
24	0xbefc160b	-0.49235567
25	0x3e0a30af	0.13495134
26	0x3eec2714	0.46123564
27	0xbf1605fe	-0.58602893
28	0x3ee33a45	0.44380394
29	0x3e9aa61f	0.30204865
30	0xbf3a7f26	-0.72850263
31	0x3f1e294b	0.6178176
32	0xbe8c8c32	-0.2745071
33	0xbf845bd5	-1.0340525
34	0xbf5d9937	-0.8656191
35	0xbf6add96	-0.91744363
36	0xbef24ee4	-0.47325814
37	0x3ebb0287	0.36525366
38	0x3e8bbe11	0.27293447
39	0x3f012033	0.5043976
40	0x3e2a9711	0.1665919
41	0xbf629cc0	-0.8852043
42	0xbeec66f4	-0.46172297
43	0xbf59ae34	-0.8503144
44	0x3e8875d5	0.266524
45	0xbf33f57c	-0.70296454
46	0xbec3a286	-0.38209933
47	0x3f1c8a28	0.6114831
48	0xbd0051e1	-0.031328086
49	0x3d957fab	0.07299741
50	0x3e9178f0	0.2841258
51	0x3f006bb4	0.5016434
52	0x3e0fe7e2	0.140533
53	0xbebe7a33	-0.37202606
54	0x3edd425a	0.43214685
55	0xbd22f2a8	-0.039782196
56	0x3ca0d70b	0.01963379
57	0xbdd94574	-0.1060895
58	0xbde912fe	-0.113805756
59	0xbb779384	-0.0037777135
60	0xbd6e9a60	-0.058252692
61	0x3e227348	0.15864289
62	0x3d48d82c	0.049034283
63	0xbebb51c3	-0.36585817
64	0x3e596683	0.21230511
65	0x3f11d972	0.5697242
66	0x3e818364	0.25295556
67	0x3e58d562	0.21175149
68	0xbe1fdc6c	-0.15611428
69	0x3f37be71	0.71774966
70	0xbe4bb192	-0.19891956
71	0xbf23563b	-0.6380345
72	0xbd0847c7	-0.033271577
73	0x3d8dfce0	0.06932998
74	0x3d209bb9	0.03921101
75	0x3cc31b28	0.02381666
76	0x3e1307f3	0.14358501
77	0xbf1d57de	-0.614622
78	0xbea70cd6	-0.3262698
79	0xbea124e5	-0.3147346
80	0xbe8fe34e	-0.28103107
81	0x3e95e549	0.29276493
82	0x3ef4e713	0.47832546
83	0xbf120054	-0.5703175
84	0xbe4314e1	-0.19050933
85	0x3f09ec76	0.53876436
86	0xbf46a586	-0.7759632
87	0xbfbcb6e0	-1.4743309
88	0xbfbc60d3	-1.4717048
89	0x3d822e21	0.06356455
90	0x3e66b5a4	0.22530228
91	0x3eb37385	0.35049072
92	0x3e57750b	0.21040742
93	0xbf203ace	-0.6258973
94	0xbe886ad2	-0.26643997
95	0xbe99c95c	-0.30036438
96	0xbe0e69e0	-0.13907576
97	0xbf1453db	-0.57940453
98	0xc023a282	-2.5567937
99	0x3d27b326	0.040942334
100	0x3e68d508	0.22737515
101	0x3dc4529a	0.095860675
102	0xbf7f4014	-0.9970715
103	0xbf7a4ea9	-0.97776276
104	0x3dce6575	0.10077945
105	0xbf40b92f	-0.7528257
106	0xbf9eb336	-1.2398441
107	0xbf079699	-0.5296417
108	0x3e21d8a7	0.15805303
109	0xbf1e93b7	-0.61944145
110	0xbe982d59	-0.29722098
111	0x3ebbb534	0.36661685
112	0xbe8f02e2	-0.27931887
113	0xbf6fc2d7	-0.93656677
114	0x3d0830a0	0.033249497
115	0xbf11b51d	-0.5691698
116	0xbf9caea2	-1.2240794
117	0xbea1c15a	-0.31592828
118	0xbf43b609	-0.7644964
119	0xbf649919	-0.8929611
120	0x3df95671	0.121746905
121	0xbf2a565e	-0.66538036
122	0xbfc9d8e9	-1.5769321
123	0x3ee08975	0.4385487
124	0xbef8a6a7	-0.48564646
125	0xbf15503d	-0.5832556
126	0xbe1d43ce	-0.15357897
127	0xbe787f05	-0.24267204
128	0xbe552084	-0.20813185
129	0xbeaabf70	-0.3334918
130	0xbe1f9221	-0.15583088
131	0xbcda0440	-0.026613355
132	0xbe57ac24	-0.2106176
133	0xbdd1aade	-0.102376685
134	0x3e153875	0.14572318
135	0xbeff6a61	-0.49885848
136	0xbec946ff	-0.39311978
137	0xbe86a28e	-0.26295894
138	0xbe5be68a	-0.21474662
139	0x3ec93cdc	0.39304245
140	0x3f0aa0f0	0.5415182
141	0x3e9e8bbd	0.30965987
142	0x3ca7e6cc	0.020495795
143	0xbf91b211	-1.1382467
144	0xbf2da7af	-0.6783399
145	0xbe310b90	-0.17289567
146	0x3f016adf	0.505537
147	0xbfa64a08	-1.2991343
148	0xbea0b1ff	-0.313858
149	0x3e1b4547	0.15163146
150	0xbff7e6a7	-1.9367265
151	0xbf376cea	-0.71650565
152	0xbee95f67	-0.455806
153	0x3e84bf07	0.25926992
154	0x3e1067b5	0.14102061
155	0xbf2c8cee	-0.6740254
156	0x3e4531db	0.192573
157	0x3e9a03e5	0.30081096
158	0xbef435d3	-0.47697315
159	0xbe3234ef	-0.17403005
160	0xbf0cdec0	-0.5502739
161	0xbf98e0f5	-1.1943651
162	0xbfd24ee0	-1.6430321
163	0xbfa4b3ea	-1.2867405
164	0xbef126f1	-0.47100022
165	0xbf372d20	-0.7155323
166	0x3ccfa879	0.025348889
167	0x3e4122d4	0.18860942
168	0xbeeb004e	-0.4589867
169	0xbe23bdb8	-0.1599034
170	0x3e98b8fa	0.29828626
171	0xbf22c172	-0.63576424
172	0x3f27a0b7	0.65479606
173	0xbeba0e74	-0.36339152
174	0xbf0914a0	-0.53547096
175	0x3ef4f45d	0.47842684
176	0xbf037d10	-0.51362705
177	0xbde48e0e	-0.11159907
178	0x3e929c0e	0.28634685
179	0xbec1126b	-0.37709364
180	0x3e0f4bc4	0.13993746
181	0x3dc2ceea	0.09512122
182	0x3e8932fd	0.26796713
183	0x3e6a5d6a	0.22887197
184	0x3edcf607	0.43156454
185	0x3d902054	0.07037416
186	0xbf61c80a	-0.8819586
187	0xbe16b93c	-0.14719099
188	0xbf279dd4	-0.654752
189	0x3f011b3c	0.5043218
190	0x3e8fd4c2	0.2809201
191	0xbec4197e	-0.383007
192	0xbea7f681	-0.32805255
193	0x3f03bc0a	0.514588
194	0x3e834016	0.2563483
195	0xbf2aca3b	-0.6671483
196	0xbe8b3fc2	-0.2719708
197	0x3ee81864	0.4533111
198	0xbe36c50b	-0.17848603
199	0xbbee933e	-0.007280736
200	0x3c65c674	0.014024366
201	0x3e3f0a8d	0.18656369
202	0xbe765171	-0.24054505
203	0xbe6a527b	-0.22883026
204	0xbe611c24	-0.21983391
205	0x3e50fe3f	0.20409487
206	0xbe23fbb0	-0.1601398
207	0x3e6fbfc3	0.23412995
208	0x3dbd356e	0.092387065
209	0x3e6a3831	0.22872998
210	0xbe09ea8a	-0.13468376
211	0xbcff7c87	-0.031187309
212	0x3ca6e62a	0.020373423
213	0xbf1ce060	-0.6127987
214	0xbebed95c	-0.37275207
215	0xbdeb8f7c	-0.11501977
216	0xbe38c2d8	-0.18043077
217	0xbe591e98	-0.21203077
218	0x3de4ea36	0.11177485
219	0xbf2fb18e	-0.686303
220	0x3e1e3347	0.15449248
221	0x3ef76408	0.48318505
222	0xbda64459	-0.08118505
223	0xbf046d28	-0.5172906
224	0x3acdbed6	0.0015697132
225	0x3ea9226e	0.3303408
226	0xbf0cf87b	-0.5506665
227	0xbd0cbf26	-0.03436198
228	0x3ead041e	0.33792204
229	0xbf1c423d	-0.6103857
230	0x3d98caf6	0.07460587
231	0x3f040cf3	0.5158226
232	0x3e1cb729	0.15304245
233	0x3f0bb0d5	0.545667
234	0x3ca4da1d	0.020123536
235	0xbebf489a	-0.37360078
236	0xbdec08f4	-0.11525145
237	0xbf341fc5	-0.70360976
238	0xbf1394a9	-0.5764871
239	0xbf0b0aff	-0.54313654
240	0xb9627460	-0.00021596393
241	0x3f3f3552	0.74690735
242	0xbf56d75d	-0.8392237
243	0x3e81cf11	0.25353292
244	0x3e1b3c0f	0.1515963
245	0xbf6424f0	-0.8911886
246	0x3ec7f49d	0.39053813
247	0xbf70ef6a	-0.94115317
248	0x3dd76880	0.10517979
249	0xbebc3cdf	-0.3676519
250	0xbddca725	-0.10774068
251	0x3efd2133	0.49439391
252	0x3e3f9267	0.18708192
253	0xbdeeb39a	-0.1165535
254	0xbe98912a	-0.2979825
255	0xbe5e48d4	-0.21707469

conv1.bias f4 [32]
0	0xbe2eff42	-0.1708956
1	0xbdbbe730	-0.09174955
2	0xbef8f518	-0.48624492
3	0xbe18aaee	-0.14908955
4	0xbecd9ee0	-0.40160275
5	0xbf3b5a33	-0.7318451
6	0xbf290e78	-0.660377
7	0xbf570cd9	-0.8400398
8	0xbe82152c	-0.25406778
9	0xbe4a5beb	-0.19761626
10	0xbd5acb2e	-0.053416423
11	0xbf0005f0	-0.5000906
12	0xbc8dc584	-0.017306097
13	0xbccc392a	-0.024929602
14	0xbe879f8e	-0.26488918
15	0xbe83a6f1	-0.25713304
16	0xbcaad578	-0.020853743
17	0xbd0227a2	-0.031776078
18	0xbd2851e8	-0.041093737
19	0xbda53c99	-0.08068199
20	0xbefd77c1	-0.49505427
21	0xbf088eb9	-0.5334278
22	0xbe9a631e	-0.30153745
23	0xbec1a84a	-0.37823707
24	0xbd24b15d	-0.04020821
25	0xbf4bffe6	-0.79687345
26	0xbda9a85a	-0.08284064
27	0xbe8e7a42	-0.2782765
28	0xbe872b8c	-0.2640041
29	0xbf69d365	-0.9133819
30	0xbc6718ff	-0.014105081
31	0xbdea442c	-0.11438784

conv2.weight f4 [64, 32, 3, 3]
0	0xbd6372cc	-0.0555294
1	0xbd59737f	-0.05308866
2	0xbddaa6c0	-0.10676336
3	0xbd649e89	-0.055815253
4	0xbca0f081	-0.019645931
5	0xbbef52c9	-0.00730357
6	0xbcd381ab	-0.025818666
7	0xbd5744e7	-0.052555945
8	0xbd06e3a1	-0.032931928
9	0x3c7f399f	0.015577703
10	0xbe06ed71	-0.13176514
11	0xbc6c51c1	-0.0144237885
12	0xbada3c16	-0.0016649987
13	0xbd5ee06e	-0.05441325
14	0xbdee5425	-0.11637143
15	0xbd6efcc5	-0.05834653
16	0xbd1b0e1d	-0.037855256
17	0xba05016d	-0.000507376
18	0x3d473490	0.048634112
19	0xbc727952	-0.014799433
20	0xbd9777a7	-0.07395869
21	0x3c3a458c	0.01136912
22	0xbc45c5ce	-0.012071086
23	0xbce0b5ae	-0.027430382
24	0xbdc46d95	-0.095912136
25	0xbbf505e2	-0.007477508
26	0xbd02ff8c	-0.03198199
27	0xbce81507	-0.02833034
28	0xbdc774b2	-0.09739055
29	0xbd3310a5	-0.043717045
30	0xbda61ceb	-0.081109844
31	0xbc6dcc41	-0.01451403
32	0xbd91e90a	-0.07124527
33	0xbd19a67b	-0.037512284
34	0xbd4d8d07	-0.050183322
35	0xbd11c10e	-0.035584502
36	0xbda67593	-0.08127894
37	0xbd0a6441	-0.033787016
38	0xbdd0428d	-0.101689436
39	0xbd43dcd6	-0.047818027
40	0xbdcd7d80	-0.10033703
41	0xbdf2fcee	-0.11864649
42	0xbde14641	-0.10999728
43	0xbc663d8b	-0.014052759
44	0xbcea7aca	-0.028623004
45	0x3d7aaa66	0.06119766
46	0x3d8c028e	0.06836425
47	0xbde793ca	-0.113074854
48	0xbbddf528	-0.0067736097
49	0x3ce03ef7	0.027373774
50	0xbdf3490d	-0.11879168
51	0x3d4afae7	0.049555685
52	0xbdd70abc	-0.10500094
53	0xbdb6afe1	-0.08920265
54	0xbd40a052	-0.047027893
55	0xbd72e384	-0.059299007
56	0xbd899294	-0.06717411
57	0xbdcd7194	-0.10031429
58	0xbd6d84d9	-0.05798802
59	0x3dafda1a	0.085865214
60	0xbd2df00d	-0.04246526
61	0xbdb74350	-0.08948386
62	0xbd0d68d7	-0.03452381
63	0xbd2fad0f	-0.04288965
64	0x3ca27c3c	0.01983463
65	0x3da8c680	0.08240986
66	0xbdeea607	-0.11652761
67	0x3d37a61f	0.04483616
68	0xbda60ac1	-0.0810752
69	0x3d60373a	0.05474017
70	0x3d0640e6	0.032776736
71	0xbd98a021	-0.07452417
72	0xbdc3d68c	-0.09562406
73	0xbdc9b70f	-0.09849369
74	0xbdd9ba6b	-0.106312595
75	0xbcba2ddc	-0.022726946
76	0xbcab29c9	-0.020893948
77	0xbd8a1afb	-0.06743427
78	0xbdc9b14b	-0.09848269
79	0xbc87f521	-0.016596379
80	0xbcbb1c52	-0.022840653
81	0x3d84c55d	0.064829566
82	0x3c12bec6	0.008956617
83	0x3da5708c	0.08078107
84	0xbcabbd5f	-0.020964323
85	0xbbf1654e	-0.007366813
86	0xbca86f1a	-0.02056079
87	0x3d4b0633	0.04956646
88	0x3c44a701	0.012002707
89	0xbcdfc744	-0.027316697
90	0xbdc06044	-0.09393361
91	0xbdb85f57	-0.0900256
92	0xbcf7ecee	-0.030264344
93	0xbd6da463	-0.0580181
94	0xbdf2235e	-0.11823152
95	0xbda462f3	-0.080266856
96	0xbd9cdb3e	-0.07659005
97	0xbd936536	-0.07197039
98	0xbd60c02f	-0.05487078
99	0x3d84e14b	0.06488284
100	0x3d824011	0.06359876
101	0xbdd8b8e9	-0.10582144
102	0xbd730059	-0.059326503
103	0xbd05dff5	-0.032684285
104	0x3db7a648	0.089672625
105	0xbe09a793	-0.1344283
106	0x3d4ba9b0	0.049722373
107	0xbdd57c84	-0.1042414
108	0x3d1080f1	0.035279218
109	0x3d5d4a9c	0.05402623
110	0xbcef9891	-0.029247554
111	0x3b809da6	0.003925043
112	0x3d14d272	0.03633351
113	0x3d0399b7	0.032129016
114	0xbd2b8ccd	-0.041882325
115	0xbe11bddb	-0.1423258
116	0xbd5f1d7f	-0.05447149
117	0xbdd7cd9b	-0.10537263
118	0xbd0a7435	-0.03380223
119	0xbde9bc76	-0.11412899
120	0xbdefd0ca	-0.11709745
121	0xbe0af9cb	-0.13571851
122	0xbd8c0ce6	-0.06838398
123	0xbcaf4fe8	-0.021400407
124	0xbdee3418	-0.1163103
125	0xbc3cfc2a	-0.01153473
126	0x3d170d73	0.03687806
127	0x3d9f21c8	0.07770115
128	0x3d814ae3	0.06313112
129	0x3bef3a8c	0.0073006805
130	0xbc3d4ba0	-0.011553675
131	0x3dbcc0b5	0.092164434
132	0xbaf63fb2	-0.0018787293
133	0xbcfb4eea	-0.030677278
134	0x3cb06ee5	0.021537254
135	0xbd22d7ea	-0.039756693
136	0xbd9e68b8	-0.07734817
137	0xbd052875	-0.032509286
138	0xbe1b9da9	-0.15196861
139	0xbd9ecba4	-0.07753685
140	0xbdf24cc6	-0.118310496
141	0xbdaeb822	-0.08531214
142	0xbd438d45	-0.047742147
143	0xbdda8f76	-0.10671894
144	0xbd2aad63	-0.04166926
145	0xbcec1a11	-0.028821023
146	0xbd560b48	-0.052256852
147	0xbdcc8d39	-0.099878736
148	0xbdd95f4b	-0.10613879
149	0xbda111d7	-0.07864731
150	0xbd0daacd	-0.034586716
151	0xbb18a629	-0.0023292399
152	0xbcd9c806	-0.026584636
153	0x3d255d16	0.040371977
154	0xbb498aef	-0.0030752977
155	0xbd3391ef	-0.043840345
156	0xbd8a82be	-0.06763218
157	0xbc0d0dfd	-0.008609292
158	0xbc453504	-0.012036566
159	0x3caba6b5	0.020953516
160	0xbd52c3e5	-0.05145635
161	0xba51d06b	-0.0008003774
162	0xbe5699ce	-0.2095711
163	0xbcf352f7	-0.029702647
164	0xbd882224	-0.06647137
165	0xbd348257	-0.044069614
166	0xbcc47cbb	-0.023985257
167	0xbce43906	-0.027859222
168	0xbd6fda75	-0.058557946
169	0xbda121bf	-0.07867765
170	0xbd961146	-0.073275134
171	0xbd6e1d26	-0.058133267
172	0xbcfed02d	-0.031105125
173	0xbdd0d414	-0.10196701
174	0xbc798ef3	-0.015231836
175	0xbd8953f3	-0.06705465
176	0xbde1539f	-0.110022776
177	0xbdc0f338	-0.0942139
178	0xbc0b52fb	-0.008503671
179	0xbbdd0049	-0.0067444188
180	0xbdeb971b	-0.115034305
181	0xbd205164	-0.03914012
182	0xbd51b771	-0.051200334
183	0xbcd18f7b	-0.025581112
184	0xbc2e36cb	-0.010633181
185	0xbdbce577	-0.092234544
186	0xbd7e1d3a	-0.06203959
187	0xbd14f06b	-0.036362093
188	0xbd9f8290	-0.07788575
189	0xbc0893e2	-0.008336039
190	0xbde14751	-0.10999931
191	0x3d69d5d8	0.057088703
192	0xbdaa08ad	-0.08302436
193	0xbdd523ae	-0.10407196
194	0xbd4ea9cf	-0.05045491
195	0xbda5267f	-0.08063983
196	0xbdec00da	-0.115236
197	0xbd6246ed	-0.05524342
198	0x3d0be051	0.03414947
199	0xbbc01d93	-0.0058629005
200	0x3c92e854	0.017933048
201	0xbc68d9c8	-0.014212079
202	0x3ca9314c	0.02065339
203	0xbd2ed6d2	-0.042685337
204	0xbd0ded15	-0.034649927
205	0xbcf505f1	-0.02991006
206	0x3d5dcfc8	0.054153234
207	0xbdffe007	-0.12493902
208	0x3d1efecf	0.038817223
209	0x3bf5f94e	0.007506526
210	0x3b887ca2	0.004165248
211	0xbd10a250	-0.035311043
212	0xbde1ffa0	-0.11035085
213	0xbd7737fd	-0.06035613
214	0xbc2a2cf8	-0.010386698
215	0xbd7a685b	-0.061134677
216	0xbda7f265	-0.0820053
217	0xbdcacc20	-0.09902215
218	0xbda72531	-0.081613906
219	0xbd7d5b02	-0.06185437
220	0xbdbadc78	-0.09124082
221	0xbd423e3f	-0.047422644
222	0xbd977b1f	-0.0739653
223	0xbdb65196	-0.0890228
224	0xbd568a85	-0.052378196
225	0xbd4a469a	-0.049383737
226	0xbdd9fded	-0.106441356
227	0xbd6d870e	-0.057990126
228	0x3d1484c9	0.036259446
229	0x3daaa9cb	0.08333167
230	0xbdee4ab3	-0.116353415
231	0xbdf1a775	-0.11799518
232	0xbcc089b1	-0.023503156
233	0xbdc828cc	-0.097734064
234	0xbd49571c	-0.04915534
235	0xbd863c7b	-0.065545045
236	0xbd965c95	-0.07341877
237	0xbd96c2be	-0.07361363
238	0xbcbd7a8f	-0.02312973
239	0xbd6c32c1	-0.05766559
240	0xbdf17dc8	-0.11791569
241	0xbdc36e7d	-0.09542558
242	0xbda5067c	-0.080578774
243	0xbd0743ba	-0.033023573
244	0xbdf50179	-0.119631715
245	0xbcceb725	-0.025233814
246	0xbd96afb1	-0.07357729
247	0xbdbc6c08	-0.09200293
248	0xbd130fd4	-0.035903767
249	0xbd538e6d	-0.0516495
250	0xbcfdccba	-0.03098141
251	0xbd40f7b2	-0.04711122
252	0x3d2d9534	0.04237862
253	0x3ca3ea73	0.020009255
254	0x3d657171	0.05601639
255	0xbc3e5832	-0.011617707

conv2.bias f4 [64]
0	0xbdc4f0b3	-0.09616222
1	0xbd1b9e00	-0.037992477
2	0xbd34ed86	-0.044171833
3	0xbca45008	-0.020057693
4	0x3d54eeb4	0.051985458
5	0x3d400efd	0.046889294
6	0xbda7d1c3	-0.08194306
7	0xbd3b7002	-0.045761116
8	0xbdebf97f	-0.11522197
9	0xbdd965f6	-0.10615151
10	0x3cd28abe	0.025700923
11	0xbc8ef21f	-0.017449437
12	0xbe271c4c	-0.16319388
13	0xbc138df0	-0.0090060085
14	0xbc1812fd	-0.009281871
15	0xbd6d3a2c	-0.057916805
16	0xbd8294f9	-0.063760705
17	0xbd460af3	-0.048350286
18	0xbc7cdcd6	-0.015433511
19	0xbd3fdcd0	-0.046841443
20	0xbdff34aa	-0.12461217
21	0xbd335cd4	-0.0437897
22	0xbddd5c33	-0.10808601
23	0xbbb68b52	-0.0055708075
24	0xbb2c764b	-0.0026315625
25	0xbd668ff6	-0.056289636
26	0xbd7f53b9	-0.062335704
27	0xbdaac025	-0.0833743
28	0xbd5e540a	-0.054279365
29	0xbd73428c	-0.059389636
30	0xbe023ea8	-0.12719214
31	0xbdc44fef	-0.095855586
32	0xbeac6682	-0.33671957
33	0xbca33463	-0.01992244
34	0xbe1ba967	-0.1520134
35	0xbdf40f87	-0.11917024
36	0xbd22d9b7	-0.03975841
37	0xbddeaf25	-0.1087325
38	0xbcb79120	-0.022408068
39	0xbdf342bf	-0.11877965
40	0xbdddb544	-0.10825589
41	0xbdebab16	-0.115072414
42	0xbd6f6803	-0.058448803
43	0xbdcd4651	-0.100231774
44	0xbc90627e	-0.01762509
45	0xbdecc9a6	-0.11561899
46	0xbda1f061	-0.07907177
47	0xbc68d06e	-0.01420985
48	0xbd8891e2	-0.0666845
49	0xbdbcf388	-0.092261374
50	0xbd6d8352	-0.057986565
51	0xbdcd7f88	-0.1003409
52	0xbe1e9764	-0.15487438
53	0x3dff97a7	0.12480097
54	0xbdfb7793	-0.12278666
55	0xbc6edb0b	-0.014578591
56	0xbdd5617d	-0.10418985
57	0xbd00a152	-0.031403847
58	0xbddf84a8	-0.10913974
59	0xbda3ec62	-0.08004071
60	0xbdde4c83	-0.10854437
61	0xbcbec457	-0.023286982
62	0xbd706e91	-0.058699194
63	0xbd26b485	-0.0406995

fc1.weight f4 [100, 1600]
0	0x3d4f46cc	0.050604627
1	0x3d99a390	0.075019
2	0xbd5279b7	-0.051385608
3	0x3d796da7	0.06089559
4	0x3dae8623	0.08521678
5	0x3d5e4059	0.054260585
6	0xbd60ee9a	-0.05491505
7	0x3d4c43a6	0.049869202
8	0x3d7a7757	0.061148968
9	0x3d8bfdf9	0.06835551
10	0x3d11c037	0.0355837
11	0x3d9fe114	0.07806602
12	0x3d93ce96	0.072171375
13	0x3d4ee2dd	0.050509322
14	0x3d367b91	0.044551436
15	0xbd933fb5	-0.071898855
16	0x3d90ba74	0.07066813
17	0x3d12aeab	0.035811108
18	0x3cebfec5	0.028808007
19	0x3d30b614	0.043142393
20	0x3da90d59	0.08254499
21	0xbd3f0c2d	-0.04664247
22	0x3d122401	0.035678867
23	0x3d217c3d	0.039425123
24	0x3d45838b	0.048221152
25	0x3c96719c	0.01836472
26	0x3c84b951	0.016201647
27	0x3d1014ed	0.035176206
28	0x3cae942c	0.021310888
29	0xbc6fd9d7	-0.014639339
30	0xbc060d23	-0.008181843
31	0x3c829ac3	0.015942937
32	0xbc5a41b7	-0.013321332
33	0xbb6cf87f	-0.0036158857
34	0x3c96101a	0.018318225
35	0xbc0d24f2	-0.0086147655
36	0xbc34b318	-0.011029027
37	0xbc16ae6e	-0.009196861
38	0xbc67bab5	-0.0141436355
39	0xbc9da5e9	-0.019244151
40	0x3c007fe5	0.007842992
41	0x3bc3b24c	0.0059721824
42	0x3c29ec44	0.0103712715
43	0xbc119b02	-0.008887054
44	0x3c20f2b3	0.009823489
45	0xbc640c07	-0.013918883
46	0x3d08955c	0.033345565
47	0x3c2e4c3f	0.010638296
48	0xbc9f0df3	-0.019415831
49	0x3ca89872	0.020580504
50	0x3b195381	0.002339572
51	0xbad8964c	-0.0016524284
52	0x3cf7b214	0.030236281
53	0x3c2783ef	0.0102243265
54	0xbadd5ece	-0.0016889216
55	0xba8b51af	-0.0010629202
56	0xbc79768a	-0.015226016
57	0x3c6b05c1	0.014344634
58	0xbbaa8bc1	-0.0052046482
59	0xbcc54176	-0.024079066
60	0xbca7aefd	-0.020469183
61	0x3cc44c72	0.023962233
62	0x3c8f6d3f	0.017508147
63	0xbc41c04d	-0.011825633
64	0xbbef0450	-0.0072942153
65	0x3bc7d7ca	0.006098722
66	0x3b3efa1b	0.0029140774
67	0xbc3c593e	-0.011495886
68	0x3c2f5b35	0.010702898
69	0x3a0e2bc1	0.000542339
70	0x3cc8d319	0.024514722
71	0x3c834572	0.016024325
72	0xbc175b57	-0.009238086
73	0xbc140468	-0.009034254
74	0x3cfe80e7	0.031067325
75	0xbcea51e3	-0.0286035
76	0x3a009706	0.0004905317
77	0x3c589a6b	0.01322041
78	0x3c1f7087	0.009731418
79	0xbaaad196	-0.0013032432
80	0xbcb13d4e	-0.021635678
81	0xbcee9963	-0.029125875
82	0x3b96a152	0.0045968676
83	0x3c4c6e9a	0.012477541
84	0xbc5c992c	-0.013464253
85	0xbc02c7e7	-0.007982231
86	0xbc204306	-0.009781605
87	0xb9a1d274	-0.00030865113
88	0xbc8b55af	-0.01700863
89	0xbcd10776	-0.025516253
90	0x3992eb20	0.00028022472
91	0xbc161970	-0.009161338
92	0xbc96fd19	-0.018431233
93	0xbce51df4	-0.027968384
94	0xbb6d70fc	-0.0036230674
95	0xb898cbfd	-7.2859206e-05
96	0xbc9b08fb	-0.01892518
97	0xbb774632	-0.0037731049
98	0xbc6ef8f4	-0.014585722
99	0x3c18c985	0.00932539
100	0x3ece745c	0.4032315
101	0x3e15b1c0	0.14618587
102	0xbebca414	-0.36843932
103	0xbf45b1ef	-0.7722463
104	0xbdb815ec	-0.08988556
105	0x3e073d42	0.13206962
106	0xbeeb5b14	-0.45967925
107	0xbf304858	-0.6886039
108	0xbe19af80	-0.15008354
109	0xbe0e231b	-0.13880579
110	0xbedc5b59	-0.43038443
111	0xbd4684a1	-0.04846633
112	0x3cd25ec1	0.025679948
113	0xbf314572	-0.6924659
114	0x3e145e30	0.14489055
115	0xbeeafc7e	-0.4589576
116	0xbfcca722	-1.5988505
117	0xbf3c767a	-0.7361828
118	0x3cf83e88	0.030303255
119	0x3e3e5f70	0.18591094
120	0x3eaf976a	0.34295207
121	0xbdb42728	-0.08796531
122	0xbbeeda7c	-0.007289229
123	0x3e8f5d43	0.2800084
124	0x3ecc3854	0.39886725
125	0xbe6e00f0	-0.23242545
126	0x3eb46385	0.35232177
127	0x3e9a11f4	0.30091822
128	0x3f4b56a7	0.79429096
129	0x3dfef744	0.12449506
130	0x3ddcaf35	0.107756056
131	0x3ec2966f	0.38005397
132	0x3ea0ec09	0.3143008
133	0x3f39818e	0.7246331
134	0x3d7740e9	0.060364638
135	0xbe30c516	-0.17262682
136	0x3f27ebb4	0.6559403
137	0x3e539f74	0.20666295
138	0xbef3a890	-0.4758954
139	0x3c0eaa07	0.00870753
140	0x3e498bd6	0.1968225
141	0x3e8ed19c	0.27894294
142	0x3f11b6fd	0.5691984
143	0xbe3df8de	-0.18551967
144	0x3e6e5ca8	0.23277533
145	0x3eadc77f	0.33941266
146	0x3ebeb4bd	0.37247267
147	0x3ebbb69a	0.3666275
148	0xbd959b09	-0.07304961
149	0x3e2c59f9	0.16831197
150	0x3e367cb5	0.1782101
151	0xbe346773	-0.17617588
152	0x3e8e3275	0.2777287
153	0x3f06324d	0.524205
154	0xbefbcd34	-0.49179995
155	0x3e67f73c	0.22652906
156	0x3dbb412d	0.09143291
157	0x3e350c2d	0.17680426
158	0x3e0c4537	0.13698278
159	0xbf4b1e78	-0.79343367
160	0x3e717aaf	0.23581956
161	0xbe540573	-0.20705204
162	0x3f02e186	0.5112537
163	0x3ebbadba	0.3665598
164	0xbeed7e42	-0.4638539
165	0x3926ac75	0.00015895239
166	0xbea587c7	-0.32330152
167	0x3e4376f7	0.1908835
168	0x3e080730	0.13283992
169	0xbf6e1e00	-0.93014526
170	0xbe5aaee2	-0.21355775
171	0x3d87c5ac	0.066295
172	0x3e082971	0.13297059
173	0xbe355626	-0.17708644
174	0xbe2ca3ed	-0.16859408
175	0x3b8c3913	0.0042792647
176	0xbc4e8459	-0.012604796
177	0x3ca65e3d	0.020308608
178	0x3cc1c5f2	0.023653958
179	0xbccbe4a1	-0.024889292
180	0x3ce28977	0.027653439
181	0xbd4f03d8	-0.050540775
182	0xba87e356	-0.0010367434
183	0x3c89292e	0.016743269
184	0x3ca65cef	0.020307986
185	0xbc99a20a	-0.018754024
186	0xbd11758b	-0.03551249
187	0x3c93d7f3	0.018047309
188	0x3c15f977	0.009153715
189	0x3cc1aa8f	0.023640899
190	0xbc145a18	-0.009054683
191	0xbb88392c	-0.004157206
192	0x3ab4b632	0.0013787209
193	0x3c66c04c	0.014083933
194	0x3d0740ed	0.033020902
195	0x3b2c0c4e	0.0026252451
196	0x3ca8da92	0.020612035
197	0xbd55a86f	-0.052162584
198	0x3d33e70d	0.04392152
199	0xbcc8d416	-0.024515193
200	0xbd217212	-0.039415427
201	0x3dab0fb6	0.08352606
202	0x3d760122	0.060059674
203	0x3d9227a1	0.07136465
204	0x3d2b3a35	0.041803557
205	0xbcad7b75	-0.021177033
206	0x3d8635d7	0.06553238
207	0x3baedc41	0.005336315
208	0xbd830eb1	-0.063992865
209	0x3d9f94f0	0.077920794
210	0xbb93f2ed	-0.004515043
211	0x3d8468c1	0.06465293
212	0x3d7c837e	0.06164884
213	0x3d9aa748	0.075514376
214	0x3d40278f	0.046912726
215	0x3d402204	0.04690744
216	0x3dbd6231	0.09247244
217	0xba218545	-0.00061615213
218	0x3d46187c	0.048363194
219	0x3d81fb14	0.063467175
220	0x3d0e23a6	0.034701966
221	0x3daf6c20	0.08565545
222	0xbb27970f	-0.0025572216
223	0x3d556639	0.05209944
224	0x3d87f23f	0.06638002
225	0xbf05fff6	-0.5234369
226	0xbcb587c4	-0.022159465
227	0x3e3ee91c	0.18643612
228	0x3f017c24	0.5058005
229	0xbc8cd2ec	-0.01719042
230	0xbea6d588	-0.32584786
231	0xbe3b48f3	-0.18289547
232	0x3f7877be	0.9705771
233	0x3ed6d8b7	0.41962215
234	0xbd313c7c	-0.043270573
235	0x3e4e5a03	0.20151524
236	0x3f36065c	0.71103454
237	0xbee0ed76	-0.43931168
238	0xbe6146aa	-0.21999612
239	0xbdb772df	-0.08957457
240	0xbddda024	-0.1082156
241	0x3e8591e9	0.26087883
242	0xbf5a3fa6	-0.8525337
243	0x3dbec4bd	0.093148686
244	0x3df53f20	0.11974931
245	0xbe44e90e	-0.19229528
246	0xbf00188f	-0.50037473
247	0xbe69e0cc	-0.2283966
248	0x3ea35a31	0.31904748
249	0x3e0bf7ec	0.13668793
250	0x3d8638a6	0.065537736
251	0xbda1fb1e	-0.07909225
252	0x3ea570d2	0.32312638
253	0xbbc40c4d	-0.0059829117
254	0xbf070929	-0.5274835
255	0x3ca5f355	0.020257631

fc1.bias f4 [100]
0	0xbf89c093	-1.0761894
1	0xbd73a919	-0.059487436
2	0xbd811a4c	-0.06303844
3	0xbf795d36	-0.97407854
4	0x3e88407f	0.26611707
5	0xbebb5727	-0.3658993
6	0xbd65051a	-0.05591307
7	0xbeb8f7ff	-0.36126706
8	0xbf1140ab	-0.567393
9	0x3ec731a8	0.38905072
10	0x3ed36969	0.4129136
11	0x3e9e5abc	0.309286
12	0x3e8dcdf7	0.276962
13	0xbdcc1bce	-0.09966241
14	0x3f4030bd	0.7507437
15	0x3ef09b2c	0.46993387
16	0xbf689562	-0.9085294
17	0xbef50cbe	-0.47861284
18	0xbee73b77	-0.45162556
19	0xbee80654	-0.45317328
20	0x3dd6dba2	0.104911104
21	0xbd9ed585	-0.07755569
22	0xbf1ffb2d	-0.6249264
23	0xbf13baa9	-0.57706696
24	0x3e3cbd0a	0.18431488
25	0xbf411249	-0.75418526
26	0xbd53e8b0	-0.05173558
27	0xbf39e32f	-0.7261228
28	0xbd8f297d	-0.06990335
29	0xbed5f12a	-0.41785556
30	0x3d98a314	0.0745298
31	0x3cdd3dde	0.02700704
32	0x3cd43091	0.025902065
33	0xbd36f5d4	-0.044668034
34	0xbd94a3e1	-0.0725782
35	0xbd26850d	-0.04065423
36	0xbf5aedea	-0.8551928
37	0xbf27d2ce	-0.6555604
38	0xbe59fb5d	-0.21287294
39	0xbd8364bd	-0.06415699
40	0xbee76e23	-0.45201215
41	0x3eb085e5	0.34477153
42	0xbf202116	-0.62550485
43	0xbdf3e0fc	-0.11908147
44	0xbd59692f	-0.053078827
45	0xbfab801f	-1.3398474
46	0xbf35bcc1	-0.7099114
47	0xbf1a29cb	-0.6022002
48	0xbdbf4919	-0.09340114
49	0xbf33172e	-0.69957244
50	0xbfba35a8	-1.4547625
51	0xbd290a53	-0.04126961
52	0xbf3546e7	-0.70811313
53	0xbef7ef7b	-0.48424897
54	0xbf6238b5	-0.8836778
55	0x3e391f1d	0.18078275
56	0xbf97f64d	-1.187204
57	0xbedb1ab8	-0.42793822
58	0x3ea77698	0.32707667
59	0xbe051187	-0.12994967
60	0xbf177f20	-0.5917835
61	0x3e1198b7	0.14218412
62	0xbf63293e	-0.88734806
63	0x3dea3cc6	0.11437373
64	0x3e88f1a9	0.26746872
65	0xbccefbac	-0.02526649
66	0xbf3b5061	-0.73169523
67	0xbeb7f19e	-0.35926527
68	0xbdae3e85	-0.085080184
69	0x3dc65f74	0.09686175
70	0xbde78302	-0.11304285
71	0xbf3eaa4e	-0.74478614
72	0x3e52c3e7	0.20582543
73	0xbf0bcd72	-0.5461036
74	0xbf7ed27e	-0.99539936
75	0x3e057194	0.13031608
76	0xbf83f683	-1.0309604
77	0xbe3aacaa	-0.18229929
78	0xbed73a45	-0.42036644
79	0xbece0e74	-0.40245402
80	0xbdcc1f45	-0.09966902
81	0x3e045582	0.12923244
82	0xbf15b7ac	-0.58483386
83	0x3eae22ff	0.34011075
84	0xbfa1d03c	-1.2641673
85	0xbf00f1f0	-0.5036917
86	0xbfa4e97d	-1.2883755
87	0xbf664ac3	-0.8995783
88	0x3f2edd00	0.6830597
89	0xbef11903	-0.47089395
90	0xbf597f82	-0.84960186
91	0xbf2d14e3	-0.67609996
92	0xbf9fa7dc	-1.2473102
93	0xbdc83566	-0.0977581
94	0xbebca509	-0.36844662
95	0xbe2adc37	-0.16685568
96	0xbf70a891	-0.9400721
97	0xbf62ac6c	-0.88544345
98	0xbe6b4a49	-0.22977556
99	0xbdebc1a4	-0.115115434

fc2.weight f4 [10, 100]
0	0x3d882fdd	0.06649754
1	0x3a3d46e1	0.00072203396
2	0xbd127783	-0.035758507
3	0xbee6aa18	-0.45051646
4	0xbec8c117	-0.39209816
5	0xbee84b5a	-0.4536999
6	0x3d9e338b	0.07724675
7	0xbe91facf	-0.28511664
8	0xbe8149e4	-0.25251687
9	0xbf29ac34	-0.66278386
10	0xbf21cca8	-0.63202906
11	0xbf019b7e	-0.5062789
12	0xbe9db157	-0.30799362
13	0xbb805f70	-0.003917627
14	0xbeed4284	-0.4633981
15	0xbf8b9b3f	-1.0906752
16	0xbec0b7ba	-0.37640172
17	0x3d530b46	0.051524423
18	0xbea08ed8	-0.3135898
19	0xbe4a4719	-0.19753684
20	0xbf4e9fbc	-0.80712485
21	0xbd14f647	-0.03636768
22	0xbe8b0db5	-0.27158895
23	0xbf3e4dbb	-0.7433736
24	0x3d0c34e9	0.034230147
25	0x3d0ac6dd	0.033881057
26	0xbcc469f1	-0.023976298
27	0xbea093a3	-0.31362638
28	0x3c03af00	0.008037329
29	0xbe99d781	-0.3004723
30	0x3d48e50d	0.049046565
31	0xbeeeb7d0	-0.46624613
32	0xbf203929	-0.6258722
33	0x3dad70d1	0.08468784
34	0xbe8bd0e2	-0.27307802
35	0xbe1ad725	-0.15121134
36	0x3d4d572e	0.05013197
37	0xbe971370	-0.29507017
38	0xbf3ee67b	-0.74570435
39	0xbc8b904e	-0.017036583
40	0x3dca1d17	0.0986883
41	0xbf46fc69	-0.777289
42	0x3d7bcb83	0.06147338
43	0xbf0dc1a8	-0.5537362
44	0x3d985ace	0.074391946
45	0xbeddf078	-0.43347526
46	0xbe7173f0	-0.23579383
47	0xbe75d409	-0.24006666
48	0xbe213eb7	-0.1574658
49	0x3dc38e48	0.09548622
50	0xbe308241	-0.17237188
51	0xbde952d0	-0.11392748
52	0xbed38098	-0.41309047
53	0xbf41b059	-0.7565971
54	0x3d0d7908	0.034539253
55	0xbf0207de	-0.50793254
56	0xbef526b8	-0.47881103
57	0xbeae6621	-0.34062293
58	0xbf952bd9	-1.1654006
59	0xbf218f5a	-0.6310936
60	0xbe8edd62	-0.27903277
61	0x3dc434f6	0.09580414
62	0x3d7d4aa7	0.061838772
63	0xbedc8456	-0.43069714
64	0xbf0b623a	-0.54446757
65	0xbefe4388	-0.49660897
66	0xbb948145	-0.0045320117
67	0xbda7b70c	-0.0818921
68	0xbdf7acaf	-0.12093484
69	0xbe98c3a1	-0.29836753
70	0x3d68764e	0.05675345
71	0xbf1ea75a	-0.6197411
72	0x3cfdf365	0.030999849
73	0xbe69254a	-0.22768131
74	0xbeae1d3c	-0.3400668
75	0xbec1f076	-0.3787877
76	0x3d846824	0.06465176
77	0xbe528571	-0.20558716
78	0xbef00dc1	-0.46885493
79	0x3d9fb931	0.07798994
80	0x3de301d0	0.1108433
81	0xbef1ffac	-0.47265375
82	0x3d6b71bc	0.057481512
83	0x3d6da47b	0.05801819
84	0xbe3c0897	-0.18362652
85	0x3dc55724	0.096357614
86	0xbe66fac0	-0.22556591
87	0x3d306699	0.043066595
88	0xbf2475cf	-0.6424226
89	0xbe841698	-0.25798488
90	0xbf3a29fe	-0.72720325
91	0x3dd002eb	0.101568066
92	0xbe9b42f9	-0.30324534
93	0xbc5ce04a	-0.013481209
94	0x3db42e43	0.08797886
95	0xbea1ed81	-0.31626514
96	0xbe94580a	-0.28973418
97	0xbed6cc7e	-0.4195289
98	0x3b4e76a4	0.003150382
99	0x3db90fe5	0.09036235
100	0xbe873a4a	-0.2641166
101	0xbdfe387b	-0.124131165
102	0x3c75f8a5	0.015012895
103	0xbe578a2d	-0.21048804
104	0x3f02a1e2	0.51028264
105	0x3ce7532f	0.028237907
106	0xbdf8555c	-0.12125656
107	0x3da11cf5	0.07866851
108	0xbedfda27	-0.43721125
109	0xbb30078b	-0.0026859965
110	0x3e6091a8	0.21930563
111	0xbec99542	-0.39371687
112	0x3e658452	0.22413757
113	0x3c7b85db	0.015351738
114	0xbdb114f2	-0.08646573
115	0x3d853792	0.0650474
116	0x3c90e696	0.017688077
117	0xbefdd29e	-0.4957475
118	0xbe00157b	-0.12508194
119	0xbec1e7f2	-0.37872273
120	0xbeb2017b	-0.34766755
121	0xbd38bcfe	-0.045102112
122	0xbe85f5fb	-0.2616423
123	0xbdb69750	-0.08915579
124	0x3ce5237a	0.027971018
125	0xbed5979d	-0.41717234
126	0x3a5185ff	0.0007992684
127	0x3e884858	0.26617694
128	0xbdc3894c	-0.09547672
129	0xbea8907b	-0.3292273
130	0x3df5292a	0.11970742
131	0x3e03b6f2	0.12862757
132	0xbdb5a523	-0.08869388
133	0xbdbedff5	-0.0932006
134	0xbec096b9	-0.37614992
135	0x3e6a92ac	0.22907513
136	0xbf1afffd	-0.6054686
137	0xbf2be48b	-0.67145604
138	0xbe264ed9	-0.16241015
139	0x3cda0de8	0.02661796
140	0xbec1c249	-0.3784354
141	0x3e321002	0.17388919
142	0xbe88f4ea	-0.26749355
143	0xbe84f248	-0.25966096
144	0xbbf2b4e2	-0.007406817
145	0xbb46b711	-0.0030321518
146	0x3e10de59	0.14147319
147	0x3d53cdb7	0.051709857
148	0xbdf58f69	-0.11990244
149	0xbe730665	-0.23732908
150	0xbe5ccd89	-0.2156278
151	0x3dae6a3d	0.08516357
152	0xbe86cde6	-0.26328963
153	0xbde2af9b	-0.1106865
154	0xbeb1d603	-0.3473359
155	0xbdb98a00	-0.090595245
156	0x3e0f9435	0.1402138
157	0x3cce2798	0.025165364
158	0xbe6d942e	-0.23201057
159	0xbf3fb27c	-0.7488172
160	0xbe208a41	-0.1567774
161	0x3d89b85a	0.067246154
162	0xbedd62d8	-0.43239474
163	0x3dab1c8b	0.083550535
164	0xbe8898a5	-0.2667896
165	0x3e321ee8	0.17394602
166	0xbf1414ac	-0.5784404
167	0xbdab8165	-0.083742894
168	0xbdb79897	-0.08964651
169	0x3e6803ee	0.22657749
170	0xbc961aaf	-0.01832327
171	0xbee2dd6d	-0.4430956
172	0x3e3a497f	0.18192099
173	0xbe94d32d	-0.29067364
174	0xbe475d2c	-0.19469136
175	0xbba9283b	-0.0051622665
176	0xbe7bc4c8	-0.24586785
177	0x3e799e58	0.2437681
178	0x3d415f5c	0.047210082
179	0xbf0aaac0	-0.54166794
180	0xbd712831	-0.05887622
181	0x3d123252	0.03569252
182	0xbe9dd70e	-0.30828136
183	0x3e149c0c	0.14512652
184	0xbead0dcf	-0.33799598
185	0xbf0a40bf	-0.54005045
186	0xbe8451f4	-0.25843775
187	0xbec72fc7	-0.3890364
188	0x3e04f645	0.1298457
189	0xbeb1dfc5	-0.34741035
190	0xbf00642c	-0.5015285
191	0x3d540485	0.051762123
192	0xbe9d4683	-0.3071786
193	0xbd90a62f	-0.07062947
194	0x3dbcb213	0.092136525
195	0xbe5b2243	-0.21399789
196	0xbe25e8d6	-0.16202101
197	0xbe930a21	-0.28718665
198	0xbef21e2e	-0.4728865
199	0xbbf1a795	-0.0073747137
200	0xbe2c6e21	-0.16838886
201	0xbe1baafc	-0.15201944
202	0xbd218b28	-0.03943935
203	0xbeba312c	-0.3636564
204	0xbe84995f	-0.25898263
205	0x3da228c9	0.079179354
206	0xbc833ae6	-0.016019296
207	0x3dbc185c	0.09184334
208	0xbef14d2d	-0.47129193
209	0xbe4cc796	-0.19998011
210	0xbd24d142	-0.040238626
211	0xbe30696e	-0.17227718
212	0xbedc270c	-0.4299854
213	0xbdb72150	-0.08941901
214	0xbe2c7017	-0.16839634
215	0xbec114f2	-0.37711293
216	0x3d6e91ae	0.0582444
217	0xbed2d38f	-0.4117703
218	0x3ca3d256	0.019997757
219	0xbdebb076	-0.11508267
220	0xbe9890b0	-0.29797888
221	0xbe1b2c4c	-0.15153617
222	0x3e289ad0	0.16465306
223	0xbe704559	-0.23463954
224	0xbeef9e89	-0.4680064
225	0x3bf9963b	0.007616786
226	0xbcf572ec	-0.029962026
227	0xbe931d3a	-0.28733236
228	0xbdb5a657	-0.088696174
229	0xbe9e2cdf	-0.3089361
230	0x3df51e54	0.11968675
231	0xbe380a6f	-0.1797273
232	0x3df39f04	0.11895564
233	0x3d008648	0.03137806
234	0xbec82d03	-0.3909684
235	0xbd7f6117	-0.06234845
236	0x3c81a502	0.015825752
237	0xbf271103	-0.6526033
238	0xbe24b5fe	-0.1608505
239	0xbe238a5d	-0.1597075
240	0xbeab2a20	-0.33430576
241	0xbe5f3fe7	-0.2180172
242	0x3c97d5aa	0.0185345
243	0x3d115503	0.035481464
244	0xbc7e5716	-0.015523693
245	0xbed0cae3	-0.4077979
246	0xbe7509c6	-0.2392951
247	0xbec78e43	-0.38975725
248	0xbdf1ba28	-0.118030846
249	0x3ddfbc85	0.10924629
250	0x3e227063	0.15863185
251	0xbd33cdf0	-0.04389757
252	0xbe0624dc	-0.13099998
253	0xbedcbbc7	-0.43112013
254	0xbe957392	-0.29189736
255	0xbe822495	-0.25418535

fc2.bias f4 [10]
0	0x3f68d26a	0.90946066
1	0xbe353a77	-0.17698084
2	0x3e5455de	0.2073588
3	0xbe24e178	-0.16101635
4	0xbf1fdc0a	-0.6244513
5	0x3e603f0b	0.21899049
6	0xbf891fc3	-1.0712818
7	0xbf07b126	-0.5300468
8	0x3f4ff732	0.81236565
9	0xbe43d520	-0.1912427
