model-sgd.pkl (torch, 722127 bytes, 8 tensors)

conv1.weight f4 [32, 1, 3, 3]
0	0x3cdc3f5e	0.026885685
1	0x3e0c8b3a	0.13724986
2	0xbea92c3a	-0.33041555
3	0xbe768dd4	-0.2407754
4	0xbe376fcf	-0.17913745
5	0x3d95c6b6	0.07313292
6	0x3de97ca0	0.114007235
7	0x3eb2a108	0.34888482
8	0x3d5d67d5	0.0540541
9	0x3dccd81f	0.10002159
10	0xbe13831f	-0.14405487
11	0xbe186439	-0.14881982
12	0xbebaacd8	-0.36459994
13	0xbe8905e4	-0.26762307
14	0xbe201dbf	-0.15636347
15	0x3e413a66	0.18869933
16	0x3ea512a0	0.32240772
17	0x3eb614d6	0.35562772
18	0xbe457df7	-0.19286333
19	0xbd1d987f	-0.03847551
20	0x3ea282ad	0.31740323
21	0x3eceb53e	0.40372652
22	0x3e424eab	0.18975322
23	0x3f175b97	0.5912413
24	0x3d496c67	0.049175646
25	0x3e8af8ef	0.27143046
26	0x3f178d25	0.59199744
27	0xbe9d68d3	-0.30744037
28	0xbe59ece2	-0.2128177
29	0xbda70fdb	-0.08157321
30	0xbe101bdc	-0.14073128
31	0x3e873a2a	0.26411563
32	0xbe639169	-0.22223438
33	0xbe2210ea	-0.15826765
34	0xbe774d63	-0.24150614
35	0xbe9df24c	-0.3084892
36	0xbd052a3c	-0.03251098
37	0x3f10b4fd	0.56526166
38	0x3ef9734f	0.48720786
39	0x3e968ffd	0.2940673
40	0x3e13ef86	0.1444684
41	0xbe0fd09d	-0.14044423
42	0xbe0bb567	-0.13643418
43	0xbf1ca5f4	-0.61190724
44	0xbef5fa56	-0.48042554
45	0xbdb71c72	-0.089409724
46	0x3ef9bd34	0.48777163
47	0x3f051e6a	0.51999533
48	0xbb1aa59e	-0.002359725
49	0x3ed39ccc	0.41330564
50	0x3f16a73b	0.58848923
51	0x3f08eb7b	0.53484315
52	0x3ef17d60	0.47165966
53	0x3ea9d5b6	0.3317086
54	0x3e8a0e26	0.2696392
55	0xbe4c84a1	-0.19972469
56	0x3d8334a6	0.06406526
57	0xbe5cc3e5	-0.21559103
58	0xbe69d23f	-0.22834109
59	0xbe2f5a5e	-0.17124316
60	0x3e50de2d	0.20397253
61	0x3e185971	0.14877869
62	0xbe513b0c	-0.20432681
63	0x3e29b17c	0.16571611
64	0x3e8e61ef	0.27809092
65	0x3ca78e60	0.020453632
66	0x3deb9d29	0.11504585
67	0x3e4cf503	0.2001534
68	0x3eaa95f2	0.33317524
69	0x3eb6f371	0.35732606
70	0xbe9720ed	-0.29517308
71	0xbdf64086	-0.120240256
72	0x3ed2e04f	0.4118676
73	0x3f274333	0.6533691
74	0x3f20f193	0.62868613
75	0x3f2dc0e6	0.67872465
76	0x3ec0fe35	0.37693945
77	0xbe2cd998	-0.1687988
78	0x3d94e9ca	0.07271154
79	0xbea7ef40	-0.3279972
80	0xbf0af3b7	-0.5427813
81	0x3ee20a6c	0.44148576
82	0x3e9ddd79	0.30833033
83	0xbf050358	-0.5195823
84	0x3e7d4ff1	0.24737526
85	0xbbb7ca11	-0.005608805
86	0xbe59837b	-0.21241562
87	0x3d930c50	0.07180083
88	0x3e8db1c1	0.27674678
89	0xbe6412ee	-0.22272846
90	0x3e8e97a7	0.27850077
91	0x3eb20551	0.3476968
92	0x3ec71d88	0.38889718
93	0x3e4700ce	0.194339
94	0xbeaa871e	-0.3330621
95	0xbe874e34	-0.26426852
96	0x3e02479d	0.12722631
97	0xbd83853c	-0.06421897
98	0xbed09d38	-0.40744948
99	0xbceac7fa	-0.02865981
100	0x3f0fb3bb	0.5613362
101	0x3f0c4167	0.54787296
102	0xbe648b75	-0.22318824
103	0xbdf87471	-0.121315844
104	0xbe8229f5	-0.25422636
105	0xbdf2166c	-0.11820683
106	0xbeb34ace	-0.3501801
107	0xbe9eee0e	-0.31040996
108	0x3d54bced	0.051937986
109	0x3d7e3eae	0.062071495
110	0xbe224482	-0.15846446
111	0x3e86cf7d	0.26330176
112	0xbe801a21	-0.25019935
113	0x3e7896e1	0.24276306
114	0x3e9f0822	0.31060892
115	0xbea128f9	-0.31476572
116	0xbdf34fbe	-0.11880444
117	0x3e1f2688	0.15542042
118	0x3e6b9846	0.23007306
119	0x3e3d9043	0.18512063
120	0x3e82983a	0.25506765
121	0x3dcecd4a	0.100977495
122	0xbe5f3565	-0.21797712
123	0x3e00a3c4	0.12562472
124	0xbee62b0d	-0.4495472
125	0xbea2e52c	-0.3181547
126	0xbdae8090	-0.08520615
127	0xbe25f14c	-0.16205329
128	0xbd9e6f45	-0.07736067
129	0xbe8c2501	-0.27371982
130	0xbd71741d	-0.058948625
131	0x3e23cf05	0.1599694
132	0xbe62621b	-0.22107737
133	0x3bb77346	0.0055984585
134	0x3ea6c6f7	0.32573673
135	0x3e64eb72	0.2235544
136	0x3e64cd57	0.22343956
137	0x3e096a73	0.13419513
138	0x3efbd6f2	0.49187428
139	0x3f525ec3	0.82175845
140	0x3f4d4498	0.8018279
141	0x3f038ec8	0.5138974
142	0x3f4b8480	0.79499054
143	0x3ec79fed	0.389892
144	0xbe9915cb	-0.2989944
145	0xbde77b14	-0.11302772
146	0x3eb562a3	0.35426816
147	0xbc1e425b	-0.009659375
148	0xbe2835b9	-0.16426744
149	0xbe69acb8	-0.22819793
150	0xbe9f723c	-0.3114184
151	0xbe90e7bc	-0.283018
152	0xbdad29a0	-0.08455205
153	0x3e4ce19b	0.20007937
154	0x3e46353b	0.19356243
155	0xbea3172a	-0.3185361
156	0x3e5eafb1	0.21746708
157	0xbe845031	-0.2584243
158	0xbd8f1c09	-0.06987769
159	0xbe0d759d	-0.13814397
160	0xbd857e31	-0.0651821
161	0xbd7f42cb	-0.062319558
162	0xbec9c00b	-0.3940433
163	0xbeb079ab	-0.34467825
164	0x3d9fdcad	0.078057624
165	0xbe1ae1c9	-0.15125193
166	0xbe40c467	-0.18824922
167	0x3eba21b6	0.36353844
168	0xbed40fb4	-0.4141823
169	0x3d861286	0.06546502
170	0x3f0e591b	0.55604714
171	0xbe335d91	-0.17516162
172	0x3f04d15b	0.5188195
173	0x3eb5ca10	0.35505724
174	0xbec95f1d	-0.39330378
175	0x3eea16cd	0.4572052
176	0x3e4c002e	0.19921944
177	0xbe3bb0f9	-0.18329228
178	0x3ef608e8	0.4805367
179	0xbda71aa4	-0.08159378
180	0x3df04053	0.11731019
181	0x3d9cf917	0.076646976
182	0x3ed9bb62	0.42525774
183	0x3e83be70	0.2573123
184	0x3eaf1d7b	0.3420218
185	0x3ea1e4ef	0.31619975
186	0xbe2d3344	-0.16914088
187	0xbe5dc9ad	-0.21658964
188	0xbec72c38	-0.38900924
189	0x3f18da99	0.59708554
190	0x3f35f2d2	0.7107364
191	0x3f37ce79	0.7179943
192	0xbeac7a10	-0.33686876
193	0xbd1c590f	-0.03817087
194	0xbdd328e9	-0.10310537
195	0xbf16508f	-0.5871667
196	0xbf280480	-0.65631866
197	0xbe25b33b	-0.16181652
198	0xbe4b6aa0	-0.19864893
199	0xbbee4d56	-0.0072724028
200	0x3c65bf80	0.014022708
201	0x3e5c001b	0.21484415
202	0xbe8103f5	-0.2519833
203	0xbe6a545b	-0.22883742
204	0xbe46372c	-0.19356984
205	0x3e6ee22d	0.23328467
206	0xbdf55f25	-0.11981038
207	0x3f0b54f8	0.5442653
208	0x3eb88b04	0.3604356
209	0x3e33dfc2	0.17565826
210	0x3dd3f7fe	0.10350035
211	0x3e28b37f	0.16474722
212	0x3ea82fba	0.32848912
213	0xbe8a371e	-0.26995176
214	0xbcf406cc	-0.029788397
215	0x3e4c7886	0.19967851
216	0xbee93ade	-0.45552725
217	0xbe5f2277	-0.21790491
218	0x3eee5cef	0.46555278
219	0xbedb037e	-0.42776102
220	0x3cda2131	0.026627155
221	0x3f0d4238	0.55179167
222	0x3d532cff	0.051556583
223	0x3e191955	0.1495107
224	0xbd67e7b1	-0.056617443
225	0x3e06a2d1	0.13148047
226	0xbeff4de8	-0.49864125
227	0xbee27d78	-0.4423635
228	0x3c73e6a7	0.014886535
229	0xbdc54856	-0.096329376
230	0xbe2cf5f3	-0.16890697
231	0x3f1b5432	0.60675347
232	0x3ee19968	0.44062352
233	0x3f0bf0c8	0.5466428
234	0x3e9bac30	0.30404806
235	0xbdeaf76c	-0.11472973
236	0x3e74c087	0.23901568
237	0xbdbfd831	-0.09367407
238	0xbcdc44b4	-0.026888229
239	0x3e2c475f	0.16824101
240	0x3e74e289	0.23914541
241	0x3ebfe001	0.3747559
242	0xbd71e324	-0.05905451
243	0x3e42e1db	0.1903147
244	0x3e4f312e	0.20233604
245	0xbedaacc3	-0.42709932
246	0x3ea06983	0.313305
247	0xbebde7d4	-0.37090933
248	0xbdec577d	-0.115401246
249	0xbe041a79	-0.12900724
250	0xbeb66f99	-0.35632017
251	0xbd5a158a	-0.053243198
252	0x3e9c65a1	0.30546287
253	0xbdb4913c	-0.08816764
254	0xbe4a7969	-0.19772877
255	0xbdebb62a	-0.115093544

conv1.bias f4 [32]
0	0x3c48190b	0.012213002
1	0x3df835ec	0.1211966
2	0x389f0b54	7.583821e-05
3	0x3e9cdbf1	0.30636552
4	0x3dd8f5d6	0.105937645
5	0xb9e272f6	-0.00043191732
6	0x3c3d8945	0.011568372
7	0xbd69ed5c	-0.05711113
8	0x3dccc94a	0.0999933
9	0xbda56204	-0.080753356
10	0x3e27f6d1	0.16402747
11	0x3d850310	0.06494725
12	0xbdac390d	-0.08409319
13	0x3de276ea	0.11057837
14	0xbd9c0850	-0.07618773
15	0x39e99772	0.0004455406
16	0x3e7e0494	0.24806434
17	0xbe6c19d5	-0.23056729
18	0x3dcd720f	0.100315206
19	0x378bdb5b	1.6672237e-05
20	0x3dbf2e68	0.09335023
21	0x3cdf0804	0.027225502
22	0xbe8bedd7	-0.27329895
23	0x39c8f786	0.00038331392
24	0x3d9e8cd2	0.07741703
25	0xbdab8783	-0.08375456
26	0x3b665971	0.0035148526
27	0x3ebbfb03	0.36714944
28	0xbe0e978b	-0.13924997
29	0x3951af8f	0.00019997194
30	0x3e80bb6f	0.25143
31	0xbaaead8b	-0.0013326866

conv2.weight f4 [64, 32, 3, 3]
0	0x3a368556	0.00069626176
1	0x3a736b04	0.0009285661
2	0xbd5e82c3	-0.054323923
3	0xbbaac845	-0.0052118623
4	0x3d0b9c34	0.034084514
5	0x3d3ae961	0.045632724
6	0x3cd25f9d	0.025680358
7	0x3aa41917	0.0012519684
8	0x3cbb1658	0.022837803
9	0xbd16951b	-0.03676329
10	0xbd82d0c3	-0.063874744
11	0xbd71da16	-0.059045874
12	0x3d14e767	0.036353495
13	0x3c8b00a5	0.01696808
14	0xbd4e3983	-0.050347816
15	0x3b9937b5	0.0046758302
16	0x3cf316a2	0.029673878
17	0x3d6b8b63	0.057505976
18	0x3da114b9	0.07865281
19	0x3d02cefb	0.031935673
20	0xbd6b67ec	-0.057472154
21	0x3cd0a016	0.02546696
22	0x3d405b02	0.04696179
23	0xbc482917	-0.012216828
24	0xbbbe8e03	-0.005815269
25	0x3d1b1825	0.037864823
26	0x3c292c8d	0.010325563
27	0x3cd9eb6f	0.026601521
28	0xbd1a0590	-0.03760296
29	0x3c9b5d8e	0.018965509
30	0xbce97440	-0.028497815
31	0x3d29594d	0.04134493
32	0xbc302e22	-0.010753186
33	0x3c81f904	0.01586581
34	0x3b430a3e	0.0029760743
35	0x3cb00e42	0.021491174
36	0xbd5e98fb	-0.054345112
37	0xba764692	-0.0009394671
38	0xbd7fcaef	-0.062449392
39	0xbca53c8e	-0.020170476
40	0xbd79b352	-0.06096203
41	0xbd994249	-0.07483346
42	0xbd7dda0f	-0.061975535
43	0x3d382b0f	0.04496294
44	0x3c54dc05	0.01299191
45	0x3dc4b53f	0.096048824
46	0x3d31d9ca	0.04342059
47	0xbde82cd6	-0.11336677
48	0x3d0c2b01	0.0342207
49	0x3c0d0dee	0.008609278
50	0xbdcca4b5	-0.09992353
51	0x3dd4b233	0.10385551
52	0xbd2ef0d8	-0.042710155
53	0xbd95e780	-0.07319546
54	0xbd615880	-0.05501604
55	0xbd0859e1	-0.03328884
56	0x3d39f33b	0.04539798
57	0x3d3978a0	0.045281053
58	0x3d1dd10e	0.03852945
59	0x3d34fec4	0.044188276
60	0x3d4acf10	0.049513876
61	0xbc937445	-0.017999778
62	0x3cd2b3fa	0.025720585
63	0x3d6527a0	0.055945992
64	0x3cbc2f7b	0.02297186
65	0x3d3505fa	0.044195153
66	0x3d298791	0.04138905
67	0x3d48ae02	0.04899407
68	0xbd09b6c8	-0.03362158
69	0x3d236183	0.039887916
70	0x3cba15da	0.022715498
71	0xbceab582	-0.028651003
72	0xbd3b4cc6	-0.045727514
73	0xbd2e0dd7	-0.042493667
74	0xbdb43519	-0.0879919
75	0x3d396907	0.045266178
76	0x3d565755	0.05232938
77	0xbd35e605	-0.044408817
78	0xbc007e0b	-0.007842551
79	0x3da48c37	0.08034556
80	0xbb13eb23	-0.0022570572
81	0x3c3c29a2	0.011484535
82	0xbc47bd8a	-0.012191186
83	0x3d56680f	0.05234533
84	0x3d2c0b97	0.04200324
85	0xbcaa2d53	-0.020773565
86	0x3d6baf2f	0.057540115
87	0x3d806996	0.06270139
88	0x3bdea86d	0.0067949803
89	0x3d00f9a8	0.03148809
90	0xbd3598fe	-0.044335358
91	0xbbe5964d	-0.0070064426
92	0x3d1f752f	0.038930114
93	0xbc358661	-0.011079402
94	0xbd138040	-0.03601098
95	0xbcd6a1c9	-0.026200192
96	0xbcb8a4eb	-0.022539577
97	0x3aa0602b	0.0012235692
98	0xbc01f949	-0.007932969
99	0x3d049dda	0.0323771
100	0xbc8a2dce	-0.016867545
101	0xbd3be07b	-0.045868378
102	0xbcf70385	-0.030153045
103	0x3c172083	0.00922406
104	0x3c9dcca4	0.01926262
105	0xbd9dc531	-0.07703627
106	0xbcb188af	-0.021671621
107	0xbd53bbdb	-0.051692825
108	0xbcc90212	-0.02453712
109	0x3cbd2187	0.023087276
110	0xbd1a8b5d	-0.037730563
111	0x3cd508bc	0.026005141
112	0x3d76c6f8	0.060248345
113	0x3c4c1161	0.012455315
114	0xbd2215b3	-0.039571475
115	0xbc4a5742	-0.012349905
116	0x3c70d78c	0.014699828
117	0xbd6e3937	-0.058160033
118	0x3cc38be6	0.02387042
119	0xbd70e904	-0.05881597
120	0xbd899b57	-0.06719082
121	0xbd4be0a1	-0.04977477
122	0xbc394f5f	-0.011310427
123	0x3d11bc8a	0.035580195
124	0xbd24585c	-0.04012333
125	0x3d2fe019	0.042938326
126	0xbca9306c	-0.020652972
127	0x3c8df4ff	0.017328737
128	0x3b5f640c	0.0034086732
129	0xbd496c20	-0.04917538
130	0x3d4c1082	0.04982043
131	0x3d063888	0.032768756
132	0x3d81275c	0.06306335
133	0x3cfc48fd	0.030796522
134	0xbd14255b	-0.036168437
135	0x3dc9e16c	0.09857449
136	0x3bb61516	0.005556713
137	0xbd52edea	-0.051496424
138	0x3d222195	0.039582808
139	0x3c6df715	0.014524241
140	0xbe099ffa	-0.13439932
141	0x3d2217d6	0.039573513
142	0x3cb0e5f0	0.021594018
143	0xbdc12761	-0.09431339
144	0x3c53907d	0.012912867
145	0x3cf9982e	0.030468073
146	0x3c1440c9	0.009048649
147	0xbd372824	-0.044716015
148	0xbd45cc59	-0.048290584
149	0xbc9cfd6c	-0.01916381
150	0x3cbb8cf7	0.022894366
151	0x3d5e5ad7	0.05428585
152	0x3d023928	0.03179279
153	0xbbf02bd5	-0.007329444
154	0x3c9efb0c	0.019406818
155	0xbd69f1f6	-0.057115518
156	0xbd467feb	-0.048461836
157	0x3ce07a86	0.027402174
158	0xbd078a85	-0.033091087
159	0x3d05b824	0.032646313
160	0xbd1a0ddf	-0.037610885
161	0xbce9a275	-0.028519848
162	0xbd1e5c02	-0.038661964
163	0x3cadbecd	0.021209145
164	0xbc08d952	-0.008352594
165	0x3d7d2abf	0.061808344
166	0x3cee5f63	0.029098218
167	0x3d06f0f9	0.032944653
168	0x3caa7c2c	0.020811163
169	0xbcc30aa2	-0.023808781
170	0xbb5dd475	-0.0033848558
171	0x3ca96c6b	0.02068158
172	0x3ca60399	0.020265387
173	0xbd9a817f	-0.07544231
174	0x3dae127f	0.084996216
175	0x3ad5c501	0.0016309322
176	0xbdaaa424	-0.083320886
177	0x3bcabfb8	0.0061874054
178	0x3d65545c	0.055988654
179	0x3cdfa46e	0.027300086
180	0xbd915337	-0.0709595
181	0x3ca2aec8	0.019858733
182	0x3abac466	0.0014249205
183	0x3ce10f99	0.027473258
184	0x3d181889	0.037132774
185	0xbd733fed	-0.059387136
186	0x3ccd8965	0.025089929
187	0x3cb9c0b9	0.022674905
188	0xbd2486aa	-0.04016749
189	0xbc6588e8	-0.014009692
190	0xbd739af8	-0.05947396
191	0x3c08c438	0.008347563
192	0xbd823350	-0.06357443
193	0xbd90314d	-0.070406534
194	0xbc2db3db	-0.010601963
195	0xbc624e48	-0.013812609
196	0xbd80d2ff	-0.06290244
197	0xbc70af27	-0.014690197
198	0x3d0bdeed	0.034148145
199	0xbbc02151	-0.0058633466
200	0x3c92e86b	0.017933091
201	0xbc68b035	-0.014202167
202	0x3ca93c93	0.020658767
203	0xbd2ed6c4	-0.042685285
204	0xbd0debd2	-0.034648724
205	0xbcf508f2	-0.029911492
206	0x3d5dd059	0.054153774
207	0xbbecbe9e	-0.007224872
208	0xbbb1fe4f	-0.0054319273
209	0xbd688a3f	-0.056772467
210	0x3d9f2920	0.07771516
211	0x3d612092	0.054962702
212	0xbd93cf1f	-0.072172396
213	0xbcfcae72	-0.0308449
214	0xbd2b59ec	-0.041833803
215	0xbca99e05	-0.020705232
216	0xbc34c678	-0.011033647
217	0xbd75cc72	-0.060009427
218	0xbd1883a2	-0.03723491
219	0x3ce17c29	0.027525024
220	0xbd3a84f7	-0.04553696
221	0x3aaaf3e7	0.0013042659
222	0x3c27ec5b	0.010249223
223	0xbd270e19	-0.04078493
224	0x3bab80d8	0.005233865
225	0x3d0c3d6c	0.034238264
226	0xbd502a63	-0.050821673
227	0xbc42c640	-0.011888087
228	0xbd4ab9de	-0.049493663
229	0x3d437383	0.047717582
230	0xbd8e7f6a	-0.06957896
231	0xbdc1c515	-0.094614185
232	0x3d18f1ce	0.037339978
233	0xbd384550	-0.044987977
234	0x3cbafcce	0.022825625
235	0xbc08c205	-0.008347039
236	0xbce8ae61	-0.028403463
237	0x3accd23a	0.0015626617
238	0x3d30fc44	0.04320933
239	0xbc5a9f4d	-0.013343644
240	0xbd389e44	-0.04507281
241	0xbd18e126	-0.037324093
242	0xbd0dc164	-0.03460826
243	0x3c9a6642	0.018847588
244	0xbd34748c	-0.04405646
245	0x3d6281c7	0.055299547
246	0xbc940a91	-0.018071445
247	0xbc15c17b	-0.009140368
248	0x3d52d3ba	0.05147145
249	0x3cf04e9b	0.029334357
250	0x3d7e4325	0.062075753
251	0x3d1571b5	0.036485393
252	0xbc93fe1f	-0.01806551
253	0xbd22e2e2	-0.039767154
254	0xbbaa1787	-0.005190793
255	0x3d47bed1	0.04876596

conv2.bias f4 [64]
0	0xbcaf5fa2	-0.021407906
1	0xba13668d	-0.0005622886
2	0x3c6d6f79	0.014491909
3	0x3c5d679a	0.01351347
4	0xbcb78069	-0.022400098
5	0x3c0380e4	0.008026335
6	0xbd62103a	-0.055191256
7	0x3cb3f450	0.021967083
8	0xbdd258b3	-0.10270824
9	0xbd05e124	-0.032685414
10	0xbd752ede	-0.05985915
11	0x3dbb365f	0.0914123
12	0xbc835195	-0.016030112
13	0x3d26b70b	0.040701907
14	0x3d1a683a	0.037697054
15	0xbce64873	-0.028110718
16	0xbd49881e	-0.049202077
17	0x3d425b59	0.047450397
18	0x3c266236	0.010155251
19	0xbd816b8e	-0.063193426
20	0x3bf444f4	0.007454509
21	0xbd006497	-0.03134593
22	0xbdfb0443	-0.12256672
23	0xbbdfd58d	-0.006830877
24	0x3d772fe2	0.0603484
25	0x3c283a97	0.010267875
26	0xbd36fe22	-0.044675954
27	0xbcc97ce2	-0.024595682
28	0xbd1b33e6	-0.03789129
29	0x3b7a0087	0.0038147287
30	0xbd62be0b	-0.05535702
31	0xbd02c6c0	-0.031927824
32	0xbd0f8bb7	-0.03504535
33	0x3d13f8fb	0.03612612
34	0xbda90acd	-0.08254013
35	0xbdb1af80	-0.08676052
36	0x3d9baecd	0.076017
37	0xbdd4c9e2	-0.103900686
38	0x3ceb4624	0.02871997
39	0xbd1e4cb0	-0.038647354
40	0xbd9fa29a	-0.07794686
41	0xbd2690e4	-0.040665522
42	0xbd5e2f06	-0.054244064
43	0xbd6e26c1	-0.058142427
44	0xbd876208	-0.06610495
45	0xbb0c9293	-0.002144967
46	0xbc86d957	-0.016461058
47	0x3d366aa2	0.044535287
48	0xbd58af83	-0.052901756
49	0x3d0ebfc0	0.034850836
50	0xbd2fa552	-0.04288227
51	0xbcfa1f20	-0.03053242
52	0x3b2198fb	0.0024657834
53	0xbe0b0fbb	-0.1358022
54	0xbdcab496	-0.09897725
55	0xbb677f5a	-0.003532371
56	0xbc6b31f2	-0.01435517
57	0x3d379378	0.04481837
58	0xbdd619d9	-0.10454149
59	0xbccfc8f4	-0.025364377
60	0xbe147263	-0.1449676
61	0xbcc0de29	-0.023543434
62	0xbd6b6667	-0.057470705
63	0x3d2e74b6	0.042591773

fc1.weight f4 [100, 1600]
0	0xbc27ccf0	-0.010241732
1	0x3c9eaaaa	0.019368488
2	0x3c993f47	0.01870693
3	0x3b885a52	0.0041611576
4	0x3cc0e101	0.02354479
5	0xbc1bceb0	-0.009509727
6	0x3c841b06	0.016126167
7	0xbc04fc7b	-0.008116837
8	0xbbe7f7ad	-0.007079086
9	0x3c88fc23	0.01672179
10	0xbcd6e8a4	-0.026233979
11	0x3cfd76a1	0.030940356
12	0x3cb738b7	0.022365911
13	0xbc7db3ff	-0.015484809
14	0xbc1f4f80	-0.009723544
15	0xbbe57726	-0.007002729
16	0x3ce24cc8	0.027624503
17	0xbd04f2c8	-0.032458097
18	0xbc85ecbf	-0.01634824
19	0x3ba19c36	0.004931952
20	0x3cb24079	0.021759259
21	0x3ad3b3c3	0.0016151596
22	0xbd0a9d7a	-0.033841588
23	0xbcd0dd10	-0.025496036
24	0xbc00e637	-0.0078673875
25	0x3ca3ee1f	0.020011006
26	0x3c660147	0.0140383905
27	0x3c9457e6	0.01810832
28	0x3b9b5b81	0.0047411327
29	0xbcb33af3	-0.021878695
30	0xbb83d804	-0.004023554
31	0x3cab6300	0.02092123
32	0xbba86863	-0.005139397
33	0xbbef8b25	-0.0073102885
34	0x3c645364	0.0139358975
35	0xbc043f8b	-0.00807179
36	0xbc1bd8c5	-0.009512131
37	0xbbafef65	-0.005369114
38	0xbaa18885	-0.0012324011
39	0xbce14776	-0.027499896
40	0xbb867517	-0.0041033137
41	0xbbc8b766	-0.0061253784
42	0x3cc02bbe	0.023458358
43	0xbbd94be4	-0.0066313613
44	0xbbaa544a	-0.0051980363
45	0xbc8f8363	-0.017518705
46	0x3cd49a7a	0.025952566
47	0xbb693296	-0.003558313
48	0xbcc78618	-0.024355933
49	0x3c6779d1	0.014128164
50	0x3c4bdb21	0.012442381
51	0x3c440b82	0.011965634
52	0x3cbc277a	0.022968043
53	0xbc2b0a42	-0.010439457
54	0xba88e7d4	-0.0010445067
55	0x3c6f92cd	0.014622402
56	0x3c23b546	0.009991949
57	0x3c8346c6	0.016024958
58	0xbaae1c69	-0.0013283613
59	0xbcb49c69	-0.022047238
60	0x3c2b6657	0.010461411
61	0x3c8fc7a9	0.01755126
62	0x3b93764a	0.004500185
63	0xbb1ca779	-0.0023903532
64	0xbce72f9a	-0.02822094
65	0xbc8c2880	-0.017109156
66	0xbd683de4	-0.05669965
67	0xbd08af9d	-0.033370603
68	0x3a88cdce	0.0010437311
69	0xbcde98d4	-0.027172484
70	0x3d084edc	0.03327833
71	0x3d465768	0.0484232
72	0x3b23eb8d	0.0025012225
73	0xbcd32e32	-0.025778864
74	0x3b9ec067	0.0048447135
75	0xbcb13dd9	-0.021635937
76	0xbb759d23	-0.0037477694
77	0xbc1106f0	-0.008851752
78	0x3bb168b9	0.0054140952
79	0xba2c1048	-0.00065637054
80	0xbd0aa051	-0.033844296
81	0xbd77ab05	-0.06046583
82	0xbd0e4978	-0.034738034
83	0x3cc0ea2b	0.02354916
84	0xbc0af7dc	-0.008481946
85	0xbcb58ed0	-0.022162825
86	0xbd6ccfb9	-0.057815287
87	0xbd07685b	-0.033058506
88	0x3c434b43	0.011919799
89	0xbc124a8c	-0.008928906
90	0x3af71d53	0.0018853344
91	0xbcf741b2	-0.030182693
92	0xbd4190a1	-0.04725707
93	0xbc92383a	-0.017849077
94	0xbc71fad4	-0.014769275
95	0xbbc1e122	-0.0059167305
96	0x3d23505b	0.039871555
97	0x3c22bb49	0.009932348
98	0xbceac5f0	-0.028658837
99	0x3b9e363e	0.0048282435
100	0x3c6f5abb	0.014609034
101	0xbc7a23a2	-0.015267285
102	0xbc989654	-0.01862637
103	0xbc8b8727	-0.01703222
104	0xbc90bcb6	-0.01766811
105	0x3c0c37fb	0.008558269
106	0xbce87720	-0.028377116
107	0xbcdf58a1	-0.027263941
108	0x3cc2e31d	0.023789937
109	0xbbfc93fc	-0.007708071
110	0x3cb287da	0.021793295
111	0x3ca752e0	0.02042526
112	0xbd31d4a5	-0.043415684
113	0xbc873b6b	-0.016507825
114	0x3c6727d5	0.014108618
115	0x3c85b441	0.016321303
116	0x3d17889c	0.036995515
117	0x3b91d870	0.00445085
118	0x3b168940	0.002296999
119	0xb7c196d3	-2.3077626e-05
120	0xbc9912e7	-0.018685771
121	0xbd2336db	-0.039847236
122	0x3c981572	0.018564913
123	0x3cf488b2	0.029850338
124	0x3c1c965d	0.009557334
125	0xbca8e2e0	-0.020615995
126	0x3b95bc58	0.0045695715
127	0x3b749c66	0.0037324666
128	0xbcad4d17	-0.021154923
129	0x3bae05c9	0.0053107482
130	0x3c8b0278	0.01696895
131	0x3bb4d40b	0.0055184416
132	0x3c2f6e7d	0.010707495
133	0xbbaf47ec	-0.00534915
134	0x3c7ccea1	0.015430124
135	0x3b339d5e	0.002740703
136	0x3c405e06	0.011741167
137	0x3cb3e65e	0.021960434
138	0xbb9b758e	-0.004744238
139	0x3cb05ea7	0.021529509
140	0x3bc92153	0.0061380058
141	0xbce3bf73	-0.027801251
142	0xbca5c5a5	-0.020235846
143	0xbc668e63	-0.014072034
144	0x3cac1cc2	0.021009807
145	0xbc03c9a0	-0.008043677
146	0xbc81683b	-0.015796771
147	0x3cb12027	0.021621777
148	0x3b1aae00	0.0023602247
149	0xba29434b	-0.0006456866
150	0x3c086f33	0.008327293
151	0x3c2e13b2	0.010624813
152	0x3b43dc1b	0.0029885832
153	0xbc00d631	-0.007863567
154	0xbccaaf3e	-0.024741765
155	0x3d0bc62d	0.034124542
156	0x3d5f2690	0.054480135
157	0x3d670bfd	0.056407917
158	0x3cca8b72	0.024724696
159	0xbccb8145	-0.024841914
160	0x3af73ba2	0.0018862376
161	0x3cb6a6d5	0.022296349
162	0x3c82e5d1	0.015978726
163	0xbcb78789	-0.022403495
164	0xbacb15bc	-0.0015494148
165	0xbc2b6c6f	-0.010462864
166	0xbca5eff6	-0.020256024
167	0xbc985adb	-0.01859801
168	0xbc847c7f	-0.016172646
169	0x3cd8294f	0.026386885
170	0xbcb87651	-0.022517355
171	0xbbad23b1	-0.0052837958
172	0xbbf8ad02	-0.0075889835
173	0x3ccdb6ad	0.02511152
174	0xbc94ef27	-0.018180443
175	0x3b92ce0a	0.004480128
176	0xbc100949	-0.008791276
177	0x3cd5fd30	0.026121706
178	0x3d48d4e9	0.049031172
179	0xbce67118	-0.0281301
180	0x3cbba98e	0.022907998
181	0x3bc4ac77	0.0060020047
182	0x3aba8165	0.0014229236
183	0xbb301a81	-0.0026871266
184	0xbc0e2fe4	-0.00867841
185	0xbc6e0286	-0.014526969
186	0x3bf1e21d	0.007381691
187	0x3cf7811e	0.030212935
188	0xbc4d4338	-0.012528233
189	0x3cd36d7b	0.02580904
190	0xbbd0cd37	-0.0063721198
191	0x3cd62ce4	0.026144452
192	0x3c036fea	0.008022288
193	0xbcb77bd5	-0.022397915
194	0x3d01f636	0.031728946
195	0x3b325f88	0.0027217586
196	0xbade7711	-0.001697274
197	0xbcae6d11	-0.021292241
198	0x3ce20bca	0.027593512
199	0xbc83276c	-0.016010009
200	0x3ca3bc98	0.01998739
201	0x3c8c13c4	0.017099269
202	0xbc865d9a	-0.016402055
203	0x3c71793b	0.014738376
204	0xbc63d820	-0.013906509
205	0x3c3d070f	0.011537327
206	0xbc3fc3e2	-0.011704417
207	0xbcf6d87c	-0.030132525
208	0xbbad307d	-0.0052853213
209	0x3d0a3cc1	0.033749346
210	0xbcfe035a	-0.031007458
211	0xbbc2eb27	-0.0059484425
212	0xbbd455f9	-0.0064799753
213	0xbbe5da70	-0.007014565
214	0xbb88c68b	-0.004174059
215	0x3a4009f9	0.0007325705
216	0x3d22bf80	0.03973341
217	0xbbb4d824	-0.00551893
218	0xbcec4dff	-0.028845785
219	0x3c4809f5	0.012209405
220	0xbc467a4e	-0.012114121
221	0x3c977578	0.01848863
222	0x3badb001	0.0053005223
223	0xbd0832e5	-0.03325166
224	0xb9f54202	-0.0004677922
225	0xbc10cce9	-0.008837917
226	0xbc47ac9c	-0.012187149
227	0x3c0dd0b9	0.00865572
228	0x3b966786	0.0045899777
229	0xbc725da2	-0.014792832
230	0x3b8bf6a8	0.004271347
231	0xbc72665b	-0.014794911
232	0xbd4ad69c	-0.049521074
233	0x3c9df0cc	0.01927986
234	0xbc156628	-0.009118594
235	0xbcf40bf9	-0.029790865
236	0xbc9d43f3	-0.01919744
237	0xbc132480	-0.00898087
238	0x3c1a497b	0.009416933
239	0x3bfd90ef	0.0077382247
240	0xbcddfea9	-0.02709897
241	0x3cd6a86c	0.026203357
242	0xbcaada3b	-0.020856014
243	0x3c7bf3c4	0.0153779425
244	0xbc241afa	-0.010016197
245	0x3ccabacf	0.02474728
246	0xbc2c1341	-0.010502637
247	0xbb22ef62	-0.0024861922
248	0xbc2464e0	-0.010033816
249	0xbc1a6113	-0.009422558
250	0x3bd6a234	0.006550098
251	0x3bb906fe	0.0056465855
252	0x3ccbc745	0.024875293
253	0x3bcd6177	0.006267722
254	0xbc70a7b1	-0.014688418
255	0xbc43a9fd	-0.011942384

fc1.bias f4 [100]
0	0xbc9da38d	-0.019243026
1	0x3a6692ad	0.000879566
2	0x3c951483	0.018198257
3	0xbcdc8b57	-0.026921911
4	0x38c91668	9.5886004e-05
5	0xbb364e03	-0.0027817495
6	0x3a9d6c1f	0.0012010372
7	0x3c793b10	0.0152118355
8	0x3bd915de	0.006624921
9	0x3cc2f359	0.023797678
10	0x3b8526c7	0.0040634605
11	0xbccfa7bc	-0.025348537
12	0x3b0fe5b4	0.0021956982
13	0xbc82e291	-0.015977176
14	0x3c980c14	0.018560447
15	0x3c137653	0.009000379
16	0xbc343128	-0.010998048
17	0x3c13dd9d	0.009025005
18	0xbbf2b6da	-0.0074070515
19	0xbc9763dd	-0.018480236
20	0xbc570191	-0.013122932
21	0xbbc7820f	-0.0060885022
22	0xbc0d7d9a	-0.008635903
23	0xbb030405	-0.001999141
24	0x3b28a803	0.0025734908
25	0xbc1b9600	-0.009496212
26	0x3c9abd18	0.018888995
27	0xbcb75b16	-0.0223823
28	0xbc2f0705	-0.010682826
29	0xbc2659d4	-0.010153253
30	0x3d085b82	0.033290394
31	0xbc19bcc1	-0.009383381
32	0xbd00f6b1	-0.031485263
33	0x3c1ceab5	0.009577443
34	0x3c45e3f9	0.012078279
35	0xbc9a4fb4	-0.018836834
36	0x3ab6f4af	0.001395842
37	0xbbd70c30	-0.006562732
38	0xbc8c0d59	-0.017096208
39	0x3c5791ab	0.013157289
40	0xbc21c0ee	-0.009872658
41	0xbb48c173	-0.0030632883
42	0x3b2c833f	0.0026323346
43	0xbc45473d	-0.01204091
44	0x3cebd6fa	0.028789032
45	0x3c52f78b	0.012876402
46	0x3c449512	0.011998432
47	0x3c92abfc	0.017904274
48	0xbc02d3d3	-0.007985073
49	0xbc5536ac	-0.013013523
50	0x3981d88c	0.00024766137
51	0x3d018348	0.03161934
52	0x3cb2cbc8	0.021825686
53	0x3cc746ac	0.024325691
54	0xbcb57d2d	-0.022154415
55	0xbc9f8a13	-0.019475019
56	0xbcb13bc0	-0.021634936
57	0xbbee0478	-0.0072637163
58	0x3c091f69	0.008369305
59	0xbbbbb006	-0.0057277707
60	0x3c4560b5	0.0120469825
61	0x3c246c5c	0.0100356005
62	0x3cd1cbc4	0.025609858
63	0x3cc63a5b	0.024197748
64	0x3ae71c72	0.0017632379
65	0x3d332030	0.04373187
66	0x3c8842d1	0.016633423
67	0xbbe2f4d3	-0.006926158
68	0xbc9fc531	-0.019503208
69	0xbc7db12b	-0.015484135
70	0xbcca71b0	-0.024712414
71	0x3a15f62e	0.00057205826
72	0xbcbf4a02	-0.02335072
73	0xbbdde5b4	-0.0067717675
74	0xbc743592	-0.01490535
75	0xbb83084a	-0.003998791
76	0x3c801b6a	0.015638072
77	0xbc86c40b	-0.016450902
78	0xbaffff73	-0.0019531086
79	0xbcaea33c	-0.02131807
80	0x3ccd6aa9	0.025075274
81	0x3c4465f6	0.0119872
82	0xbbecf5b0	-0.0072314367
83	0x3ca9aa87	0.020711197
84	0xbc9c1d59	-0.019056963
85	0x39c90687	0.0003834257
86	0xbc1a1ca0	-0.009406239
87	0xbc5d1922	-0.013494762
88	0x3caf266e	0.02138063
89	0x3ca2ac09	0.019857423
90	0xbc51980e	-0.0127926
91	0x3c812bdc	0.015767984
92	0xbc05ead7	-0.008173666
93	0xbcaa1023	-0.020759648
94	0x3c3eb7cf	0.011640503
95	0x3c85c090	0.016327173
96	0xbbaf0441	-0.0053410833
97	0xbcc227d8	-0.02370064
98	0x3b3f1723	0.0029158078
99	0xbc5d17c9	-0.01349444

fc2.weight f4 [10, 100]
0	0x3e2d8f19	0.16949119
1	0xbe811b81	-0.25216296
2	0xbe7fc4da	-0.24977437
3	0x3dd5a396	0.10431592
4	0x3e14fcf8	0.14549625
5	0xbd93c858	-0.07215947
6	0x3c990f2c	0.018683992
7	0xbe33d661	-0.17562248
8	0xbe8672f5	-0.2625958
9	0xbd812772	-0.06306352
10	0x3ad96347	0.0016585373
11	0xbdea8e09	-0.11452872
12	0x3dbe01a8	0.0927766
13	0x3e4b01b6	0.19824871
14	0xbc237989	-0.009977707
15	0xbe0856c7	-0.13314353
16	0xbd0742e6	-0.033022784
17	0xbd02788b	-0.03185324
18	0xbe0877e4	-0.13326985
19	0xbd96b356	-0.07358424
20	0x3e792025	0.24328668
21	0xbe1e99c2	-0.15488341
22	0xbd7575e4	-0.059926882
23	0xbdf1dc3d	-0.11809585
24	0x3df8b49c	0.121438235
25	0xbdfc53b2	-0.12320651
26	0xbe9eb25c	-0.30995452
27	0x3e07031f	0.13184784
28	0xbdefadbc	-0.11703059
29	0x3e0a6087	0.13513385
30	0x3e3bef57	0.1835302
31	0x3e33ef03	0.17571644
32	0xbda10f62	-0.07864262
33	0x3ea339c8	0.3188002
34	0x3dff5dff	0.124691
35	0x3d0f437f	0.03497648
36	0xbbbcd7d2	-0.0057630325
37	0xbe1bc7db	-0.15212958
38	0xbe47870f	-0.19485115
39	0xbe091ff3	-0.13391094
40	0x3df964d2	0.12177433
41	0x3e206bf9	0.15666188
42	0xbe014fbb	-0.12628071
43	0xbd2e249a	-0.042515375
44	0xbdbeddee	-0.093196735
45	0x3e157807	0.14596568
46	0x3e0756c7	0.13216697
47	0x3e21838f	0.15772842
48	0xbe4afd58	-0.19823205
49	0x3e1ef33c	0.15522474
50	0x3e3f8429	0.18702759
51	0xbe85e1a5	-0.26148716
52	0x3d90b650	0.07066023
53	0xbb6008cb	-0.0034184929
54	0xbdaecc30	-0.085350394
55	0xbd2a5dff	-0.041593548
56	0xbdb12d26	-0.086511895
57	0xbe111616	-0.14168581
58	0xbe084f9f	-0.13311623
59	0xbe1116f1	-0.14168908
60	0xbbf2c9d9	-0.007409316
61	0x3e33e1dd	0.17566629
62	0x3df0a4b7	0.11750167
63	0xbe612c9c	-0.21989673
64	0x3d92b939	0.07164235
65	0x3e335973	0.17514591
66	0xbbf8a770	-0.0075883195
67	0x3e4a6361	0.19764473
68	0xbe29bb3e	-0.16575333
69	0x3cfe1e97	0.031020446
70	0xbe490ae6	-0.19633064
71	0xbe326c18	-0.17424047
72	0xbd6d1172	-0.057877965
73	0x3e15098b	0.14554422
74	0x3e34e696	0.17666087
75	0x3e82597a	0.2545889
76	0xbe045a04	-0.12924963
77	0x3ccc7737	0.02495919
78	0x3e342b06	0.17594537
79	0x3da9b713	0.08286872
80	0x3dd16b7d	0.1022558
81	0x3e33fd79	0.17577161
82	0xbdb9a1d3	-0.09064069
83	0xbe1ee1eb	-0.15515868
84	0x3c538e0b	0.012912284
85	0x3dc15382	0.09439756
86	0x3e3c041b	0.18360941
87	0x3e09a28b	0.13440911
88	0xbdec5c2a	-0.115410164
89	0x3c0e41e4	0.008682702
90	0xbe052f8b	-0.13006417
91	0x3dd2428d	0.102666
92	0xbe2398cc	-0.15976256
93	0xbe48a72e	-0.19595024
94	0x3e1175fd	0.14205165
95	0xbe198e78	-0.14995754
96	0x3e0a0e9f	0.1348214
97	0xbde4af88	-0.111662924
98	0x3d61fe1d	0.055173982
99	0xbcb0b619	-0.021571206
100	0xbe0b3088	-0.13592732
101	0xbe4a52c1	-0.1975813
102	0x3e00780c	0.12545794
103	0x3e0991db	0.13434546
104	0x3dc8e5c4	0.09809449
105	0x3cc1f2ce	0.023675349
106	0xbd77d23b	-0.060503226
107	0x3e212c76	0.15739617
108	0x3cd2171d	0.025645787
109	0x3e548f82	0.20757869
110	0xbded6984	-0.11592391
111	0xbcab2e6c	-0.02089616
112	0xbe2baa2c	-0.16764134
113	0x3d0514d0	0.03249055
114	0x3df8f93d	0.121569134
115	0x3e811674	0.25212443
116	0x3e189dd1	0.14903952
117	0xbe833f95	-0.25634447
118	0x3e274756	0.16335806
119	0xbdb6d8a2	-0.08928038
120	0x3c7ca7ed	0.015420896
121	0x3e180613	0.14846067
122	0xbe490cae	-0.19633743
123	0x3e0e1cbb	0.13878147
124	0xbe7e945a	-0.24861279
125	0xbd527e83	-0.051390182
126	0x3dc3fff9	0.09570307
127	0x3e4324cf	0.1905701
128	0xbdb48c8d	-0.088158704
129	0xbe2ff8bd	-0.1718473
130	0xbd8c2e13	-0.068447255
131	0x3e3dc11a	0.18530694
132	0x3e03f753	0.12887315
133	0xbd9d80d1	-0.076905854
134	0xbd974591	-0.073863156
135	0x3e2507e8	0.16116297
136	0xbdf0dc5c	-0.1176078
137	0xbdf7a21a	-0.12091465
138	0x3de8aacd	0.11360703
139	0x3e801e8e	0.2502331
140	0xbe3d7a0b	-0.18503587
141	0x3e2e772d	0.1703765
142	0x3e2f5b7f	0.17124747
143	0xba5d8475	-0.00084502186
144	0x3e1e012b	0.15430133
145	0xbe13ba64	-0.14426571
146	0x3dc85d05	0.09783367
147	0x3e49d98e	0.19711897
148	0xbdc6d1fb	-0.09708019
149	0xbe424196	-0.18970332
150	0xbe04acca	-0.12956539
151	0x3dadba51	0.08482803
152	0xbe7533b1	-0.239455
153	0x3e0ec403	0.1394196
154	0xbe0992a0	-0.13434839
155	0x3d9e12a8	0.07718402
156	0x3e9a890a	0.30182678
157	0x3dff8ede	0.12478422
158	0x3e0496d9	0.12948169
159	0x3e53de6e	0.20690319
160	0x3e53eb9c	0.20695347
161	0x3e4a07a5	0.19729479
162	0xbe1dbc9f	-0.15403984
163	0x3e556096	0.20837626
164	0x3dffe7e5	0.12495402
165	0x3e2a1792	0.16610554
166	0xbb99b624	-0.0046909023
167	0xbe1e938e	-0.15485975
168	0xbdbc07b1	-0.091811545
169	0x3e0201a2	0.12695935
170	0xbe1a6a1b	-0.15079539
171	0xbc239ff5	-0.009986867
172	0x3d863541	0.06553126
173	0x3c1c4bce	0.009539558
174	0xbe3d8985	-0.18509491
175	0x3cf25978	0.029583678
176	0xbcc43b18	-0.02395396
177	0x3dd5533d	0.10416267
178	0xbdbbd62c	-0.091717094
179	0xbe42d89a	-0.1902794
180	0xbe162cc9	-0.14665522
181	0x3dc65f7f	0.09686183
182	0xbe4f11d5	-0.20221646
183	0x3e2d767a	0.16939726
184	0xbdd87e60	-0.10570979
185	0xbe8c28a4	-0.27374756
186	0xbdd3e5e7	-0.10346585
187	0x3d947938	0.07249683
188	0x3e67d15d	0.2263846
189	0x3e0ee817	0.13955723
190	0xbe34f87e	-0.17672917
191	0x3df58e89	0.11990077
192	0x3d250006	0.040283225
193	0xbe87b547	-0.2650549
194	0xbcd480b7	-0.025940282
195	0x3e111072	0.1416643
196	0xbdb51a40	-0.088428974
197	0xbe18cda7	-0.149222
198	0xbe1d4c6b	-0.15361182
199	0x3ea942c6	0.33058757
200	0xbe6e77eb	-0.23287933
201	0xbe0bd917	-0.13657032
202	0x3e137117	0.14398609
203	0xbe813d75	-0.252422
204	0xbdf211a8	-0.11819774
205	0x3d996e77	0.074917726
206	0x3d39de21	0.045377854
207	0x3e0fe506	0.1405221
208	0x3ddf965d	0.109173514
209	0xba044f79	-0.0005047243
210	0x3e11edcb	0.14250867
211	0x3e2e26fc	0.17007059
212	0x3d0d876c	0.034552976
213	0xbdddb2d7	-0.108251266
214	0x3e1d68f2	0.15372065
215	0xbe2dcbfc	-0.16972345
216	0x3e0ac9e8	0.13553584
217	0x3d4ef656	0.050527893
218	0x3b01f734	0.0019831182
219	0x3dbe60b9	0.09295792
220	0x3def9e86	0.11700158
221	0xbea30ce6	-0.31845778
222	0x3d2260e6	0.03964319
223	0xbd6b09b1	-0.05738229
224	0xbe10c6cf	-0.1413834
225	0x3e586912	0.21133831
226	0x3e08dbc8	0.1336509
227	0x3e3ebb83	0.18626218
228	0x3db337f1	0.08750904
229	0xbe1d062e	-0.15334389
230	0xbd4c2cd3	-0.049847435
231	0x3d369ac3	0.044581186
232	0x3e23a7ce	0.15981981
233	0x3ea2e67d	0.31816474
234	0x3dd753b4	0.10514012
235	0x3da5e04a	0.0809942
236	0x3e2c0557	0.16798912
237	0xbd8d2be3	-0.06893136
238	0xbd2de92b	-0.042458694
239	0xbe391d47	-0.18077575
240	0x3dcff359	0.10153837
241	0x3e207e1f	0.15673111
242	0x3e2bd300	0.16779709
243	0x3e0fa96a	0.1402947
244	0x3e22a817	0.15884434
245	0xbe37008f	-0.17871307
246	0x3df4152a	0.11918099
247	0xbe39a72e	-0.1813018
248	0xbe31b374	-0.17353612
249	0x3e0be1b1	0.13660313
250	0x3e2c2ded	0.16814394
251	0xbe6cd109	-0.23126616
252	0x3e13f660	0.14449453
253	0xbea3948f	-0.3194928
254	0xbd82aec2	-0.06380989
255	0xbddccfae	-0.10781799

fc2.bias f4 [10]
0	0x39d87ee7	0.0004129328
1	0x3bc3d5c7	0.005976412
2	0xbd913b0a	-0.07091339
3	0xbd894457	-0.06702488
4	0x3d64b604	0.055837646
5	0xbcda67cb	-0.02666082
6	0xbd76f3f0	-0.06029123
7	0xbdc84b06	-0.097799346
8	0x3d2027d3	0.03910048
9	0xbd101c50	-0.03518325
